{"class_name": "Model", "keras_version": "2.2.4", "config": {"layers": [{"class_name": "InputLayer", "config": {"dtype": "float32", "batch_input_shape": [null, 256, 256, 1], "name": "ip0", "sparse": false}, "inbound_nodes": [], "name": "ip0"}, {"class_name": "Conv2D", "config": {"kernel_constraint": null, "kernel_initializer": {"class_name": "VarianceScaling", "config": {"distribution": "uniform", "scale": 1.0, "seed": null, "mode": "fan_avg"}}, "name": "conv2d_1", "bias_regularizer": null, "bias_constraint": null, "activation": "relu", "trainable": true, "data_format": "channels_last", "padding": "same", "strides": [1, 1], "dilation_rate": [1, 1], "kernel_regularizer": {"class_name": "L1L2", "config": {"l2": 0.00019999999494757503, "l1": 0.0}}, "filters": 32, "bias_initializer": {"class_name": "Zeros", "config": {}}, "use_bias": true, "activity_regularizer": null, "kernel_size": [3, 3]}, "inbound_nodes": [[["ip0", 0, 0, {}]]], "name": "conv2d_1"}, {"class_name": "BatchNormalization", "config": {"beta_constraint": null, "gamma_initializer": {"class_name": "Ones", "config": {}}, "moving_mean_initializer": {"class_name": "Zeros", "config": {}}, "name": "batch_normalization_1", "epsilon": 0.001, "trainable": true, "moving_variance_initializer": {"class_name": "Ones", "config": {}}, "beta_initializer": {"class_name": "Zeros", "config": {}}, "scale": true, "axis": -1, "gamma_constraint": null, "gamma_regularizer": null, "beta_regularizer": null, "momentum": 0.99, "center": true}, "inbound_nodes": [[["conv2d_1", 0, 0, {}]]], "name": "batch_normalization_1"}, {"class_name": "Conv2D", "config": {"kernel_constraint": null, "kernel_initializer": {"class_name": "VarianceScaling", "config": {"distribution": "uniform", "scale": 1.0, "seed": null, "mode": "fan_avg"}}, "name": "conv2d_2", "bias_regularizer": null, "bias_constraint": null, "activation": "relu", "trainable": true, "data_format": "channels_last", "padding": "same", "strides": [1, 1], "dilation_rate": [1, 1], "kernel_regularizer": {"class_name": "L1L2", "config": {"l2": 0.00019999999494757503, "l1": 0.0}}, "filters": 32, "bias_initializer": {"class_name": "Zeros", "config": {}}, "use_bias": true, "activity_regularizer": null, "kernel_size": [3, 3]}, "inbound_nodes": [[["batch_normalization_1", 0, 0, {}]]], "name": "conv2d_2"}, {"class_name": "BatchNormalization", "config": {"beta_constraint": null, "gamma_initializer": {"class_name": "Ones", "config": {}}, "moving_mean_initializer": {"class_name": "Zeros", "config": {}}, "name": "batch_normalization_2", "epsilon": 0.001, "trainable": true, "moving_variance_initializer": {"class_name": "Ones", "config": {}}, "beta_initializer": {"class_name": "Zeros", "config": {}}, "scale": true, "axis": -1, "gamma_constraint": null, "gamma_regularizer": null, "beta_regularizer": null, "momentum": 0.99, "center": true}, "inbound_nodes": [[["conv2d_2", 0, 0, {}]]], "name": "batch_normalization_2"}, {"class_name": "MaxPooling2D", "config": {"name": "max_pooling2d_1", "trainable": true, "data_format": "channels_last", "pool_size": [2, 2], "padding": "valid", "strides": [2, 2]}, "inbound_nodes": [[["batch_normalization_2", 0, 0, {}]]], "name": "max_pooling2d_1"}, {"class_name": "Dropout", "config": {"rate": 0.3, "noise_shape": null, "trainable": true, "seed": null, "name": "dropout_1"}, "inbound_nodes": [[["max_pooling2d_1", 0, 0, {}]]], "name": "dropout_1"}, {"class_name": "Conv2D", "config": {"kernel_constraint": null, "kernel_initializer": {"class_name": "VarianceScaling", "config": {"distribution": "uniform", "scale": 1.0, "seed": null, "mode": "fan_avg"}}, "name": "conv2d_3", "bias_regularizer": null, "bias_constraint": null, "activation": "relu", "trainable": true, "data_format": "channels_last", "padding": "same", "strides": [1, 1], "dilation_rate": [1, 1], "kernel_regularizer": {"class_name": "L1L2", "config": {"l2": 0.00019999999494757503, "l1": 0.0}}, "filters": 32, "bias_initializer": {"class_name": "Zeros", "config": {}}, "use_bias": true, "activity_regularizer": null, "kernel_size": [3, 3]}, "inbound_nodes": [[["dropout_1", 0, 0, {}]]], "name": "conv2d_3"}, {"class_name": "BatchNormalization", "config": {"beta_constraint": null, "gamma_initializer": {"class_name": "Ones", "config": {}}, "moving_mean_initializer": {"class_name": "Zeros", "config": {}}, "name": "batch_normalization_3", "epsilon": 0.001, "trainable": true, "moving_variance_initializer": {"class_name": "Ones", "config": {}}, "beta_initializer": {"class_name": "Zeros", "config": {}}, "scale": true, "axis": -1, "gamma_constraint": null, "gamma_regularizer": null, "beta_regularizer": null, "momentum": 0.99, "center": true}, "inbound_nodes": [[["conv2d_3", 0, 0, {}]]], "name": "batch_normalization_3"}, {"class_name": "Conv2D", "config": {"kernel_constraint": null, "kernel_initializer": {"class_name": "VarianceScaling", "config": {"distribution": "uniform", "scale": 1.0, "seed": null, "mode": "fan_avg"}}, "name": "conv2d_4", "bias_regularizer": null, "bias_constraint": null, "activation": "relu", "trainable": true, "data_format": "channels_last", "padding": "same", "strides": [1, 1], "dilation_rate": [1, 1], "kernel_regularizer": {"class_name": "L1L2", "config": {"l2": 0.00019999999494757503, "l1": 0.0}}, "filters": 32, "bias_initializer": {"class_name": "Zeros", "config": {}}, "use_bias": true, "activity_regularizer": null, "kernel_size": [3, 3]}, "inbound_nodes": [[["batch_normalization_3", 0, 0, {}]]], "name": "conv2d_4"}, {"class_name": "BatchNormalization", "config": {"beta_constraint": null, "gamma_initializer": {"class_name": "Ones", "config": {}}, "moving_mean_initializer": {"class_name": "Zeros", "config": {}}, "name": "batch_normalization_4", "epsilon": 0.001, "trainable": true, "moving_variance_initializer": {"class_name": "Ones", "config": {}}, "beta_initializer": {"class_name": "Zeros", "config": {}}, "scale": true, "axis": -1, "gamma_constraint": null, "gamma_regularizer": null, "beta_regularizer": null, "momentum": 0.99, "center": true}, "inbound_nodes": [[["conv2d_4", 0, 0, {}]]], "name": "batch_normalization_4"}, {"class_name": "MaxPooling2D", "config": {"name": "max_pooling2d_2", "trainable": true, "data_format": "channels_last", "pool_size": [2, 2], "padding": "valid", "strides": [2, 2]}, "inbound_nodes": [[["batch_normalization_4", 0, 0, {}]]], "name": "max_pooling2d_2"}, {"class_name": "Dropout", "config": {"rate": 0.3, "noise_shape": null, "trainable": true, "seed": null, "name": "dropout_2"}, "inbound_nodes": [[["max_pooling2d_2", 0, 0, {}]]], "name": "dropout_2"}, {"class_name": "Conv2D", "config": {"kernel_constraint": null, "kernel_initializer": {"class_name": "VarianceScaling", "config": {"distribution": "uniform", "scale": 1.0, "seed": null, "mode": "fan_avg"}}, "name": "conv2d_5", "bias_regularizer": null, "bias_constraint": null, "activation": "relu", "trainable": true, "data_format": "channels_last", "padding": "same", "strides": [1, 1], "dilation_rate": [1, 1], "kernel_regularizer": {"class_name": "L1L2", "config": {"l2": 0.00019999999494757503, "l1": 0.0}}, "filters": 64, "bias_initializer": {"class_name": "Zeros", "config": {}}, "use_bias": true, "activity_regularizer": null, "kernel_size": [3, 3]}, "inbound_nodes": [[["dropout_2", 0, 0, {}]]], "name": "conv2d_5"}, {"class_name": "BatchNormalization", "config": {"beta_constraint": null, "gamma_initializer": {"class_name": "Ones", "config": {}}, "moving_mean_initializer": {"class_name": "Zeros", "config": {}}, "name": "batch_normalization_5", "epsilon": 0.001, "trainable": true, "moving_variance_initializer": {"class_name": "Ones", "config": {}}, "beta_initializer": {"class_name": "Zeros", "config": {}}, "scale": true, "axis": -1, "gamma_constraint": null, "gamma_regularizer": null, "beta_regularizer": null, "momentum": 0.99, "center": true}, "inbound_nodes": [[["conv2d_5", 0, 0, {}]]], "name": "batch_normalization_5"}, {"class_name": "Conv2D", "config": {"kernel_constraint": null, "kernel_initializer": {"class_name": "VarianceScaling", "config": {"distribution": "uniform", "scale": 1.0, "seed": null, "mode": "fan_avg"}}, "name": "conv2d_6", "bias_regularizer": null, "bias_constraint": null, "activation": "relu", "trainable": true, "data_format": "channels_last", "padding": "same", "strides": [1, 1], "dilation_rate": [1, 1], "kernel_regularizer": {"class_name": "L1L2", "config": {"l2": 0.00019999999494757503, "l1": 0.0}}, "filters": 64, "bias_initializer": {"class_name": "Zeros", "config": {}}, "use_bias": true, "activity_regularizer": null, "kernel_size": [3, 3]}, "inbound_nodes": [[["batch_normalization_5", 0, 0, {}]]], "name": "conv2d_6"}, {"class_name": "BatchNormalization", "config": {"beta_constraint": null, "gamma_initializer": {"class_name": "Ones", "config": {}}, "moving_mean_initializer": {"class_name": "Zeros", "config": {}}, "name": "batch_normalization_6", "epsilon": 0.001, "trainable": true, "moving_variance_initializer": {"class_name": "Ones", "config": {}}, "beta_initializer": {"class_name": "Zeros", "config": {}}, "scale": true, "axis": -1, "gamma_constraint": null, "gamma_regularizer": null, "beta_regularizer": null, "momentum": 0.99, "center": true}, "inbound_nodes": [[["conv2d_6", 0, 0, {}]]], "name": "batch_normalization_6"}, {"class_name": "MaxPooling2D", "config": {"name": "max_pooling2d_3", "trainable": true, "data_format": "channels_last", "pool_size": [2, 2], "padding": "valid", "strides": [2, 2]}, "inbound_nodes": [[["batch_normalization_6", 0, 0, {}]]], "name": "max_pooling2d_3"}, {"class_name": "Dropout", "config": {"rate": 0.3, "noise_shape": null, "trainable": true, "seed": null, "name": "dropout_3"}, "inbound_nodes": [[["max_pooling2d_3", 0, 0, {}]]], "name": "dropout_3"}, {"class_name": "Conv2D", "config": {"kernel_constraint": null, "kernel_initializer": {"class_name": "VarianceScaling", "config": {"distribution": "uniform", "scale": 1.0, "seed": null, "mode": "fan_avg"}}, "name": "conv2d_7", "bias_regularizer": null, "bias_constraint": null, "activation": "relu", "trainable": true, "data_format": "channels_last", "padding": "same", "strides": [1, 1], "dilation_rate": [1, 1], "kernel_regularizer": {"class_name": "L1L2", "config": {"l2": 0.00019999999494757503, "l1": 0.0}}, "filters": 128, "bias_initializer": {"class_name": "Zeros", "config": {}}, "use_bias": true, "activity_regularizer": null, "kernel_size": [3, 3]}, "inbound_nodes": [[["dropout_3", 0, 0, {}]]], "name": "conv2d_7"}, {"class_name": "BatchNormalization", "config": {"beta_constraint": null, "gamma_initializer": {"class_name": "Ones", "config": {}}, "moving_mean_initializer": {"class_name": "Zeros", "config": {}}, "name": "batch_normalization_7", "epsilon": 0.001, "trainable": true, "moving_variance_initializer": {"class_name": "Ones", "config": {}}, "beta_initializer": {"class_name": "Zeros", "config": {}}, "scale": true, "axis": -1, "gamma_constraint": null, "gamma_regularizer": null, "beta_regularizer": null, "momentum": 0.99, "center": true}, "inbound_nodes": [[["conv2d_7", 0, 0, {}]]], "name": "batch_normalization_7"}, {"class_name": "Conv2D", "config": {"kernel_constraint": null, "kernel_initializer": {"class_name": "VarianceScaling", "config": {"distribution": "uniform", "scale": 1.0, "seed": null, "mode": "fan_avg"}}, "name": "conv2d_8", "bias_regularizer": null, "bias_constraint": null, "activation": "relu", "trainable": true, "data_format": "channels_last", "padding": "same", "strides": [1, 1], "dilation_rate": [1, 1], "kernel_regularizer": {"class_name": "L1L2", "config": {"l2": 0.00019999999494757503, "l1": 0.0}}, "filters": 128, "bias_initializer": {"class_name": "Zeros", "config": {}}, "use_bias": true, "activity_regularizer": null, "kernel_size": [3, 3]}, "inbound_nodes": [[["batch_normalization_7", 0, 0, {}]]], "name": "conv2d_8"}, {"class_name": "BatchNormalization", "config": {"beta_constraint": null, "gamma_initializer": {"class_name": "Ones", "config": {}}, "moving_mean_initializer": {"class_name": "Zeros", "config": {}}, "name": "batch_normalization_8", "epsilon": 0.001, "trainable": true, "moving_variance_initializer": {"class_name": "Ones", "config": {}}, "beta_initializer": {"class_name": "Zeros", "config": {}}, "scale": true, "axis": -1, "gamma_constraint": null, "gamma_regularizer": null, "beta_regularizer": null, "momentum": 0.99, "center": true}, "inbound_nodes": [[["conv2d_8", 0, 0, {}]]], "name": "batch_normalization_8"}, {"class_name": "MaxPooling2D", "config": {"name": "max_pooling2d_4", "trainable": true, "data_format": "channels_last", "pool_size": [2, 2], "padding": "valid", "strides": [2, 2]}, "inbound_nodes": [[["batch_normalization_8", 0, 0, {}]]], "name": "max_pooling2d_4"}, {"class_name": "Dropout", "config": {"rate": 0.3, "noise_shape": null, "trainable": true, "seed": null, "name": "dropout_4"}, "inbound_nodes": [[["max_pooling2d_4", 0, 0, {}]]], "name": "dropout_4"}, {"class_name": "Conv2D", "config": {"kernel_constraint": null, "kernel_initializer": {"class_name": "VarianceScaling", "config": {"distribution": "uniform", "scale": 1.0, "seed": null, "mode": "fan_avg"}}, "name": "conv2d_9", "bias_regularizer": null, "bias_constraint": null, "activation": "relu", "trainable": true, "data_format": "channels_last", "padding": "same", "strides": [1, 1], "dilation_rate": [1, 1], "kernel_regularizer": {"class_name": "L1L2", "config": {"l2": 0.00019999999494757503, "l1": 0.0}}, "filters": 256, "bias_initializer": {"class_name": "Zeros", "config": {}}, "use_bias": true, "activity_regularizer": null, "kernel_size": [3, 3]}, "inbound_nodes": [[["dropout_4", 0, 0, {}]]], "name": "conv2d_9"}, {"class_name": "BatchNormalization", "config": {"beta_constraint": null, "gamma_initializer": {"class_name": "Ones", "config": {}}, "moving_mean_initializer": {"class_name": "Zeros", "config": {}}, "name": "batch_normalization_9", "epsilon": 0.001, "trainable": true, "moving_variance_initializer": {"class_name": "Ones", "config": {}}, "beta_initializer": {"class_name": "Zeros", "config": {}}, "scale": true, "axis": -1, "gamma_constraint": null, "gamma_regularizer": null, "beta_regularizer": null, "momentum": 0.99, "center": true}, "inbound_nodes": [[["conv2d_9", 0, 0, {}]]], "name": "batch_normalization_9"}, {"class_name": "Conv2D", "config": {"kernel_constraint": null, "kernel_initializer": {"class_name": "VarianceScaling", "config": {"distribution": "uniform", "scale": 1.0, "seed": null, "mode": "fan_avg"}}, "name": "conv2d_10", "bias_regularizer": null, "bias_constraint": null, "activation": "relu", "trainable": true, "data_format": "channels_last", "padding": "same", "strides": [1, 1], "dilation_rate": [1, 1], "kernel_regularizer": {"class_name": "L1L2", "config": {"l2": 0.00019999999494757503, "l1": 0.0}}, "filters": 256, "bias_initializer": {"class_name": "Zeros", "config": {}}, "use_bias": true, "activity_regularizer": null, "kernel_size": [3, 3]}, "inbound_nodes": [[["batch_normalization_9", 0, 0, {}]]], "name": "conv2d_10"}, {"class_name": "BatchNormalization", "config": {"beta_constraint": null, "gamma_initializer": {"class_name": "Ones", "config": {}}, "moving_mean_initializer": {"class_name": "Zeros", "config": {}}, "name": "batch_normalization_10", "epsilon": 0.001, "trainable": true, "moving_variance_initializer": {"class_name": "Ones", "config": {}}, "beta_initializer": {"class_name": "Zeros", "config": {}}, "scale": true, "axis": -1, "gamma_constraint": null, "gamma_regularizer": null, "beta_regularizer": null, "momentum": 0.99, "center": true}, "inbound_nodes": [[["conv2d_10", 0, 0, {}]]], "name": "batch_normalization_10"}, {"class_name": "MaxPooling2D", "config": {"name": "max_pooling2d_5", "trainable": true, "data_format": "channels_last", "pool_size": [2, 2], "padding": "valid", "strides": [2, 2]}, "inbound_nodes": [[["batch_normalization_10", 0, 0, {}]]], "name": "max_pooling2d_5"}, {"class_name": "Dropout", "config": {"rate": 0.3, "noise_shape": null, "trainable": true, "seed": null, "name": "dropout_5"}, "inbound_nodes": [[["max_pooling2d_5", 0, 0, {}]]], "name": "dropout_5"}, {"class_name": "Conv2D", "config": {"kernel_constraint": null, "kernel_initializer": {"class_name": "VarianceScaling", "config": {"distribution": "uniform", "scale": 1.0, "seed": null, "mode": "fan_avg"}}, "name": "conv2d_11", "bias_regularizer": null, "bias_constraint": null, "activation": "relu", "trainable": true, "data_format": "channels_last", "padding": "same", "strides": [1, 1], "dilation_rate": [1, 1], "kernel_regularizer": {"class_name": "L1L2", "config": {"l2": 0.00019999999494757503, "l1": 0.0}}, "filters": 512, "bias_initializer": {"class_name": "Zeros", "config": {}}, "use_bias": true, "activity_regularizer": null, "kernel_size": [3, 3]}, "inbound_nodes": [[["dropout_5", 0, 0, {}]]], "name": "conv2d_11"}, {"class_name": "BatchNormalization", "config": {"beta_constraint": null, "gamma_initializer": {"class_name": "Ones", "config": {}}, "moving_mean_initializer": {"class_name": "Zeros", "config": {}}, "name": "batch_normalization_11", "epsilon": 0.001, "trainable": true, "moving_variance_initializer": {"class_name": "Ones", "config": {}}, "beta_initializer": {"class_name": "Zeros", "config": {}}, "scale": true, "axis": -1, "gamma_constraint": null, "gamma_regularizer": null, "beta_regularizer": null, "momentum": 0.99, "center": true}, "inbound_nodes": [[["conv2d_11", 0, 0, {}]]], "name": "batch_normalization_11"}, {"class_name": "Conv2D", "config": {"kernel_constraint": null, "kernel_initializer": {"class_name": "VarianceScaling", "config": {"distribution": "uniform", "scale": 1.0, "seed": null, "mode": "fan_avg"}}, "name": "conv2d_12", "bias_regularizer": null, "bias_constraint": null, "activation": "relu", "trainable": true, "data_format": "channels_last", "padding": "same", "strides": [1, 1], "dilation_rate": [1, 1], "kernel_regularizer": {"class_name": "L1L2", "config": {"l2": 0.00019999999494757503, "l1": 0.0}}, "filters": 512, "bias_initializer": {"class_name": "Zeros", "config": {}}, "use_bias": true, "activity_regularizer": null, "kernel_size": [3, 3]}, "inbound_nodes": [[["batch_normalization_11", 0, 0, {}]]], "name": "conv2d_12"}, {"class_name": "BatchNormalization", "config": {"beta_constraint": null, "gamma_initializer": {"class_name": "Ones", "config": {}}, "moving_mean_initializer": {"class_name": "Zeros", "config": {}}, "name": "batch_normalization_12", "epsilon": 0.001, "trainable": true, "moving_variance_initializer": {"class_name": "Ones", "config": {}}, "beta_initializer": {"class_name": "Zeros", "config": {}}, "scale": true, "axis": -1, "gamma_constraint": null, "gamma_regularizer": null, "beta_regularizer": null, "momentum": 0.99, "center": true}, "inbound_nodes": [[["conv2d_12", 0, 0, {}]]], "name": "batch_normalization_12"}, {"class_name": "Conv2DTranspose", "config": {"output_padding": null, "kernel_initializer": {"class_name": "VarianceScaling", "config": {"distribution": "uniform", "scale": 1.0, "seed": null, "mode": "fan_avg"}}, "name": "conv2d_transpose_6", "bias_regularizer": null, "bias_constraint": null, "activation": "linear", "trainable": true, "data_format": "channels_last", "padding": "same", "strides": [2, 2], "dilation_rate": [1, 1], "kernel_regularizer": null, "filters": 256, "bias_initializer": {"class_name": "Zeros", "config": {}}, "kernel_constraint": null, "use_bias": true, "activity_regularizer": null, "kernel_size": [2, 2]}, "inbound_nodes": [[["batch_normalization_12", 0, 0, {}]]], "name": "conv2d_transpose_6"}, {"class_name": "Concatenate", "config": {"trainable": true, "name": "xup6", "axis": 3}, "inbound_nodes": [[["conv2d_transpose_6", 0, 0, {}], ["batch_normalization_10", 0, 0, {}]]], "name": "xup6"}, {"class_name": "Conv2DTranspose", "config": {"output_padding": null, "kernel_initializer": {"class_name": "VarianceScaling", "config": {"distribution": "uniform", "scale": 1.0, "seed": null, "mode": "fan_avg"}}, "name": "conv2d_transpose_1", "bias_regularizer": null, "bias_constraint": null, "activation": "linear", "trainable": true, "data_format": "channels_last", "padding": "same", "strides": [2, 2], "dilation_rate": [1, 1], "kernel_regularizer": null, "filters": 256, "bias_initializer": {"class_name": "Zeros", "config": {}}, "kernel_constraint": null, "use_bias": true, "activity_regularizer": null, "kernel_size": [2, 2]}, "inbound_nodes": [[["batch_normalization_12", 0, 0, {}]]], "name": "conv2d_transpose_1"}, {"class_name": "Dropout", "config": {"rate": 0.3, "noise_shape": null, "trainable": true, "seed": null, "name": "dropout_9"}, "inbound_nodes": [[["xup6", 0, 0, {}]]], "name": "dropout_9"}, {"class_name": "Concatenate", "config": {"trainable": true, "name": "up6", "axis": 3}, "inbound_nodes": [[["conv2d_transpose_1", 0, 0, {}], ["batch_normalization_10", 0, 0, {}]]], "name": "up6"}, {"class_name": "Conv2D", "config": {"kernel_constraint": null, "kernel_initializer": {"class_name": "VarianceScaling", "config": {"distribution": "uniform", "scale": 1.0, "seed": null, "mode": "fan_avg"}}, "name": "conv2d_23", "bias_regularizer": null, "bias_constraint": null, "activation": "relu", "trainable": true, "data_format": "channels_last", "padding": "same", "strides": [1, 1], "dilation_rate": [1, 1], "kernel_regularizer": {"class_name": "L1L2", "config": {"l2": 0.00019999999494757503, "l1": 0.0}}, "filters": 256, "bias_initializer": {"class_name": "Zeros", "config": {}}, "use_bias": true, "activity_regularizer": null, "kernel_size": [3, 3]}, "inbound_nodes": [[["dropout_9", 0, 0, {}]]], "name": "conv2d_23"}, {"class_name": "Dropout", "config": {"rate": 0.3, "noise_shape": null, "trainable": true, "seed": null, "name": "dropout_6"}, "inbound_nodes": [[["up6", 0, 0, {}]]], "name": "dropout_6"}, {"class_name": "BatchNormalization", "config": {"beta_constraint": null, "gamma_initializer": {"class_name": "Ones", "config": {}}, "moving_mean_initializer": {"class_name": "Zeros", "config": {}}, "name": "batch_normalization_23", "epsilon": 0.001, "trainable": true, "moving_variance_initializer": {"class_name": "Ones", "config": {}}, "beta_initializer": {"class_name": "Zeros", "config": {}}, "scale": true, "axis": -1, "gamma_constraint": null, "gamma_regularizer": null, "beta_regularizer": null, "momentum": 0.99, "center": true}, "inbound_nodes": [[["conv2d_23", 0, 0, {}]]], "name": "batch_normalization_23"}, {"class_name": "Conv2D", "config": {"kernel_constraint": null, "kernel_initializer": {"class_name": "VarianceScaling", "config": {"distribution": "uniform", "scale": 1.0, "seed": null, "mode": "fan_avg"}}, "name": "conv2d_13", "bias_regularizer": null, "bias_constraint": null, "activation": "relu", "trainable": true, "data_format": "channels_last", "padding": "same", "strides": [1, 1], "dilation_rate": [1, 1], "kernel_regularizer": {"class_name": "L1L2", "config": {"l2": 0.00019999999494757503, "l1": 0.0}}, "filters": 256, "bias_initializer": {"class_name": "Zeros", "config": {}}, "use_bias": true, "activity_regularizer": null, "kernel_size": [3, 3]}, "inbound_nodes": [[["dropout_6", 0, 0, {}]]], "name": "conv2d_13"}, {"class_name": "Conv2D", "config": {"kernel_constraint": null, "kernel_initializer": {"class_name": "VarianceScaling", "config": {"distribution": "uniform", "scale": 1.0, "seed": null, "mode": "fan_avg"}}, "name": "conv2d_24", "bias_regularizer": null, "bias_constraint": null, "activation": "relu", "trainable": true, "data_format": "channels_last", "padding": "same", "strides": [1, 1], "dilation_rate": [1, 1], "kernel_regularizer": {"class_name": "L1L2", "config": {"l2": 0.00019999999494757503, "l1": 0.0}}, "filters": 256, "bias_initializer": {"class_name": "Zeros", "config": {}}, "use_bias": true, "activity_regularizer": null, "kernel_size": [3, 3]}, "inbound_nodes": [[["batch_normalization_23", 0, 0, {}]]], "name": "conv2d_24"}, {"class_name": "BatchNormalization", "config": {"beta_constraint": null, "gamma_initializer": {"class_name": "Ones", "config": {}}, "moving_mean_initializer": {"class_name": "Zeros", "config": {}}, "name": "batch_normalization_13", "epsilon": 0.001, "trainable": true, "moving_variance_initializer": {"class_name": "Ones", "config": {}}, "beta_initializer": {"class_name": "Zeros", "config": {}}, "scale": true, "axis": -1, "gamma_constraint": null, "gamma_regularizer": null, "beta_regularizer": null, "momentum": 0.99, "center": true}, "inbound_nodes": [[["conv2d_13", 0, 0, {}]]], "name": "batch_normalization_13"}, {"class_name": "BatchNormalization", "config": {"beta_constraint": null, "gamma_initializer": {"class_name": "Ones", "config": {}}, "moving_mean_initializer": {"class_name": "Zeros", "config": {}}, "name": "batch_normalization_24", "epsilon": 0.001, "trainable": true, "moving_variance_initializer": {"class_name": "Ones", "config": {}}, "beta_initializer": {"class_name": "Zeros", "config": {}}, "scale": true, "axis": -1, "gamma_constraint": null, "gamma_regularizer": null, "beta_regularizer": null, "momentum": 0.99, "center": true}, "inbound_nodes": [[["conv2d_24", 0, 0, {}]]], "name": "batch_normalization_24"}, {"class_name": "Conv2D", "config": {"kernel_constraint": null, "kernel_initializer": {"class_name": "VarianceScaling", "config": {"distribution": "uniform", "scale": 1.0, "seed": null, "mode": "fan_avg"}}, "name": "conv2d_14", "bias_regularizer": null, "bias_constraint": null, "activation": "relu", "trainable": true, "data_format": "channels_last", "padding": "same", "strides": [1, 1], "dilation_rate": [1, 1], "kernel_regularizer": {"class_name": "L1L2", "config": {"l2": 0.00019999999494757503, "l1": 0.0}}, "filters": 256, "bias_initializer": {"class_name": "Zeros", "config": {}}, "use_bias": true, "activity_regularizer": null, "kernel_size": [3, 3]}, "inbound_nodes": [[["batch_normalization_13", 0, 0, {}]]], "name": "conv2d_14"}, {"class_name": "Conv2DTranspose", "config": {"output_padding": null, "kernel_initializer": {"class_name": "VarianceScaling", "config": {"distribution": "uniform", "scale": 1.0, "seed": null, "mode": "fan_avg"}}, "name": "conv2d_transpose_7", "bias_regularizer": null, "bias_constraint": null, "activation": "linear", "trainable": true, "data_format": "channels_last", "padding": "same", "strides": [2, 2], "dilation_rate": [1, 1], "kernel_regularizer": null, "filters": 128, "bias_initializer": {"class_name": "Zeros", "config": {}}, "kernel_constraint": null, "use_bias": true, "activity_regularizer": null, "kernel_size": [2, 2]}, "inbound_nodes": [[["batch_normalization_24", 0, 0, {}]]], "name": "conv2d_transpose_7"}, {"class_name": "BatchNormalization", "config": {"beta_constraint": null, "gamma_initializer": {"class_name": "Ones", "config": {}}, "moving_mean_initializer": {"class_name": "Zeros", "config": {}}, "name": "batch_normalization_14", "epsilon": 0.001, "trainable": true, "moving_variance_initializer": {"class_name": "Ones", "config": {}}, "beta_initializer": {"class_name": "Zeros", "config": {}}, "scale": true, "axis": -1, "gamma_constraint": null, "gamma_regularizer": null, "beta_regularizer": null, "momentum": 0.99, "center": true}, "inbound_nodes": [[["conv2d_14", 0, 0, {}]]], "name": "batch_normalization_14"}, {"class_name": "Concatenate", "config": {"trainable": true, "name": "xup7", "axis": 3}, "inbound_nodes": [[["conv2d_transpose_7", 0, 0, {}], ["batch_normalization_8", 0, 0, {}]]], "name": "xup7"}, {"class_name": "Conv2DTranspose", "config": {"output_padding": null, "kernel_initializer": {"class_name": "VarianceScaling", "config": {"distribution": "uniform", "scale": 1.0, "seed": null, "mode": "fan_avg"}}, "name": "conv2d_transpose_2", "bias_regularizer": null, "bias_constraint": null, "activation": "linear", "trainable": true, "data_format": "channels_last", "padding": "same", "strides": [2, 2], "dilation_rate": [1, 1], "kernel_regularizer": null, "filters": 128, "bias_initializer": {"class_name": "Zeros", "config": {}}, "kernel_constraint": null, "use_bias": true, "activity_regularizer": null, "kernel_size": [2, 2]}, "inbound_nodes": [[["batch_normalization_14", 0, 0, {}]]], "name": "conv2d_transpose_2"}, {"class_name": "Dropout", "config": {"rate": 0.3, "noise_shape": null, "trainable": true, "seed": null, "name": "dropout_10"}, "inbound_nodes": [[["xup7", 0, 0, {}]]], "name": "dropout_10"}, {"class_name": "Concatenate", "config": {"trainable": true, "name": "up7", "axis": 3}, "inbound_nodes": [[["conv2d_transpose_2", 0, 0, {}], ["batch_normalization_8", 0, 0, {}]]], "name": "up7"}, {"class_name": "Conv2D", "config": {"kernel_constraint": null, "kernel_initializer": {"class_name": "VarianceScaling", "config": {"distribution": "uniform", "scale": 1.0, "seed": null, "mode": "fan_avg"}}, "name": "conv2d_25", "bias_regularizer": null, "bias_constraint": null, "activation": "relu", "trainable": true, "data_format": "channels_last", "padding": "same", "strides": [1, 1], "dilation_rate": [1, 1], "kernel_regularizer": {"class_name": "L1L2", "config": {"l2": 0.00019999999494757503, "l1": 0.0}}, "filters": 128, "bias_initializer": {"class_name": "Zeros", "config": {}}, "use_bias": true, "activity_regularizer": null, "kernel_size": [3, 3]}, "inbound_nodes": [[["dropout_10", 0, 0, {}]]], "name": "conv2d_25"}, {"class_name": "Dropout", "config": {"rate": 0.3, "noise_shape": null, "trainable": true, "seed": null, "name": "dropout_7"}, "inbound_nodes": [[["up7", 0, 0, {}]]], "name": "dropout_7"}, {"class_name": "BatchNormalization", "config": {"beta_constraint": null, "gamma_initializer": {"class_name": "Ones", "config": {}}, "moving_mean_initializer": {"class_name": "Zeros", "config": {}}, "name": "batch_normalization_25", "epsilon": 0.001, "trainable": true, "moving_variance_initializer": {"class_name": "Ones", "config": {}}, "beta_initializer": {"class_name": "Zeros", "config": {}}, "scale": true, "axis": -1, "gamma_constraint": null, "gamma_regularizer": null, "beta_regularizer": null, "momentum": 0.99, "center": true}, "inbound_nodes": [[["conv2d_25", 0, 0, {}]]], "name": "batch_normalization_25"}, {"class_name": "Conv2D", "config": {"kernel_constraint": null, "kernel_initializer": {"class_name": "VarianceScaling", "config": {"distribution": "uniform", "scale": 1.0, "seed": null, "mode": "fan_avg"}}, "name": "conv2d_15", "bias_regularizer": null, "bias_constraint": null, "activation": "relu", "trainable": true, "data_format": "channels_last", "padding": "same", "strides": [1, 1], "dilation_rate": [1, 1], "kernel_regularizer": {"class_name": "L1L2", "config": {"l2": 0.00019999999494757503, "l1": 0.0}}, "filters": 128, "bias_initializer": {"class_name": "Zeros", "config": {}}, "use_bias": true, "activity_regularizer": null, "kernel_size": [3, 3]}, "inbound_nodes": [[["dropout_7", 0, 0, {}]]], "name": "conv2d_15"}, {"class_name": "Conv2D", "config": {"kernel_constraint": null, "kernel_initializer": {"class_name": "VarianceScaling", "config": {"distribution": "uniform", "scale": 1.0, "seed": null, "mode": "fan_avg"}}, "name": "conv2d_26", "bias_regularizer": null, "bias_constraint": null, "activation": "relu", "trainable": true, "data_format": "channels_last", "padding": "same", "strides": [1, 1], "dilation_rate": [1, 1], "kernel_regularizer": {"class_name": "L1L2", "config": {"l2": 0.00019999999494757503, "l1": 0.0}}, "filters": 128, "bias_initializer": {"class_name": "Zeros", "config": {}}, "use_bias": true, "activity_regularizer": null, "kernel_size": [3, 3]}, "inbound_nodes": [[["batch_normalization_25", 0, 0, {}]]], "name": "conv2d_26"}, {"class_name": "BatchNormalization", "config": {"beta_constraint": null, "gamma_initializer": {"class_name": "Ones", "config": {}}, "moving_mean_initializer": {"class_name": "Zeros", "config": {}}, "name": "batch_normalization_15", "epsilon": 0.001, "trainable": true, "moving_variance_initializer": {"class_name": "Ones", "config": {}}, "beta_initializer": {"class_name": "Zeros", "config": {}}, "scale": true, "axis": -1, "gamma_constraint": null, "gamma_regularizer": null, "beta_regularizer": null, "momentum": 0.99, "center": true}, "inbound_nodes": [[["conv2d_15", 0, 0, {}]]], "name": "batch_normalization_15"}, {"class_name": "BatchNormalization", "config": {"beta_constraint": null, "gamma_initializer": {"class_name": "Ones", "config": {}}, "moving_mean_initializer": {"class_name": "Zeros", "config": {}}, "name": "batch_normalization_26", "epsilon": 0.001, "trainable": true, "moving_variance_initializer": {"class_name": "Ones", "config": {}}, "beta_initializer": {"class_name": "Zeros", "config": {}}, "scale": true, "axis": -1, "gamma_constraint": null, "gamma_regularizer": null, "beta_regularizer": null, "momentum": 0.99, "center": true}, "inbound_nodes": [[["conv2d_26", 0, 0, {}]]], "name": "batch_normalization_26"}, {"class_name": "Conv2D", "config": {"kernel_constraint": null, "kernel_initializer": {"class_name": "VarianceScaling", "config": {"distribution": "uniform", "scale": 1.0, "seed": null, "mode": "fan_avg"}}, "name": "conv2d_16", "bias_regularizer": null, "bias_constraint": null, "activation": "relu", "trainable": true, "data_format": "channels_last", "padding": "same", "strides": [1, 1], "dilation_rate": [1, 1], "kernel_regularizer": {"class_name": "L1L2", "config": {"l2": 0.00019999999494757503, "l1": 0.0}}, "filters": 128, "bias_initializer": {"class_name": "Zeros", "config": {}}, "use_bias": true, "activity_regularizer": null, "kernel_size": [3, 3]}, "inbound_nodes": [[["batch_normalization_15", 0, 0, {}]]], "name": "conv2d_16"}, {"class_name": "Conv2DTranspose", "config": {"output_padding": null, "kernel_initializer": {"class_name": "VarianceScaling", "config": {"distribution": "uniform", "scale": 1.0, "seed": null, "mode": "fan_avg"}}, "name": "conv2d_transpose_8", "bias_regularizer": null, "bias_constraint": null, "activation": "linear", "trainable": true, "data_format": "channels_last", "padding": "same", "strides": [2, 2], "dilation_rate": [1, 1], "kernel_regularizer": null, "filters": 64, "bias_initializer": {"class_name": "Zeros", "config": {}}, "kernel_constraint": null, "use_bias": true, "activity_regularizer": null, "kernel_size": [2, 2]}, "inbound_nodes": [[["batch_normalization_26", 0, 0, {}]]], "name": "conv2d_transpose_8"}, {"class_name": "BatchNormalization", "config": {"beta_constraint": null, "gamma_initializer": {"class_name": "Ones", "config": {}}, "moving_mean_initializer": {"class_name": "Zeros", "config": {}}, "name": "batch_normalization_16", "epsilon": 0.001, "trainable": true, "moving_variance_initializer": {"class_name": "Ones", "config": {}}, "beta_initializer": {"class_name": "Zeros", "config": {}}, "scale": true, "axis": -1, "gamma_constraint": null, "gamma_regularizer": null, "beta_regularizer": null, "momentum": 0.99, "center": true}, "inbound_nodes": [[["conv2d_16", 0, 0, {}]]], "name": "batch_normalization_16"}, {"class_name": "Concatenate", "config": {"trainable": true, "name": "xup8", "axis": 3}, "inbound_nodes": [[["conv2d_transpose_8", 0, 0, {}], ["batch_normalization_6", 0, 0, {}]]], "name": "xup8"}, {"class_name": "Conv2DTranspose", "config": {"output_padding": null, "kernel_initializer": {"class_name": "VarianceScaling", "config": {"distribution": "uniform", "scale": 1.0, "seed": null, "mode": "fan_avg"}}, "name": "conv2d_transpose_3", "bias_regularizer": null, "bias_constraint": null, "activation": "linear", "trainable": true, "data_format": "channels_last", "padding": "same", "strides": [2, 2], "dilation_rate": [1, 1], "kernel_regularizer": null, "filters": 64, "bias_initializer": {"class_name": "Zeros", "config": {}}, "kernel_constraint": null, "use_bias": true, "activity_regularizer": null, "kernel_size": [2, 2]}, "inbound_nodes": [[["batch_normalization_16", 0, 0, {}]]], "name": "conv2d_transpose_3"}, {"class_name": "Dropout", "config": {"rate": 0.3, "noise_shape": null, "trainable": true, "seed": null, "name": "dropout_11"}, "inbound_nodes": [[["xup8", 0, 0, {}]]], "name": "dropout_11"}, {"class_name": "Concatenate", "config": {"trainable": true, "name": "up8", "axis": 3}, "inbound_nodes": [[["conv2d_transpose_3", 0, 0, {}], ["batch_normalization_6", 0, 0, {}]]], "name": "up8"}, {"class_name": "Conv2D", "config": {"kernel_constraint": null, "kernel_initializer": {"class_name": "VarianceScaling", "config": {"distribution": "uniform", "scale": 1.0, "seed": null, "mode": "fan_avg"}}, "name": "conv2d_27", "bias_regularizer": null, "bias_constraint": null, "activation": "relu", "trainable": true, "data_format": "channels_last", "padding": "same", "strides": [1, 1], "dilation_rate": [1, 1], "kernel_regularizer": {"class_name": "L1L2", "config": {"l2": 0.00019999999494757503, "l1": 0.0}}, "filters": 64, "bias_initializer": {"class_name": "Zeros", "config": {}}, "use_bias": true, "activity_regularizer": null, "kernel_size": [3, 3]}, "inbound_nodes": [[["dropout_11", 0, 0, {}]]], "name": "conv2d_27"}, {"class_name": "Dropout", "config": {"rate": 0.3, "noise_shape": null, "trainable": true, "seed": null, "name": "dropout_8"}, "inbound_nodes": [[["up8", 0, 0, {}]]], "name": "dropout_8"}, {"class_name": "BatchNormalization", "config": {"beta_constraint": null, "gamma_initializer": {"class_name": "Ones", "config": {}}, "moving_mean_initializer": {"class_name": "Zeros", "config": {}}, "name": "batch_normalization_27", "epsilon": 0.001, "trainable": true, "moving_variance_initializer": {"class_name": "Ones", "config": {}}, "beta_initializer": {"class_name": "Zeros", "config": {}}, "scale": true, "axis": -1, "gamma_constraint": null, "gamma_regularizer": null, "beta_regularizer": null, "momentum": 0.99, "center": true}, "inbound_nodes": [[["conv2d_27", 0, 0, {}]]], "name": "batch_normalization_27"}, {"class_name": "Conv2D", "config": {"kernel_constraint": null, "kernel_initializer": {"class_name": "VarianceScaling", "config": {"distribution": "uniform", "scale": 1.0, "seed": null, "mode": "fan_avg"}}, "name": "conv2d_17", "bias_regularizer": null, "bias_constraint": null, "activation": "relu", "trainable": true, "data_format": "channels_last", "padding": "same", "strides": [1, 1], "dilation_rate": [1, 1], "kernel_regularizer": {"class_name": "L1L2", "config": {"l2": 0.00019999999494757503, "l1": 0.0}}, "filters": 64, "bias_initializer": {"class_name": "Zeros", "config": {}}, "use_bias": true, "activity_regularizer": null, "kernel_size": [3, 3]}, "inbound_nodes": [[["dropout_8", 0, 0, {}]]], "name": "conv2d_17"}, {"class_name": "Conv2D", "config": {"kernel_constraint": null, "kernel_initializer": {"class_name": "VarianceScaling", "config": {"distribution": "uniform", "scale": 1.0, "seed": null, "mode": "fan_avg"}}, "name": "conv2d_28", "bias_regularizer": null, "bias_constraint": null, "activation": "relu", "trainable": true, "data_format": "channels_last", "padding": "same", "strides": [1, 1], "dilation_rate": [1, 1], "kernel_regularizer": {"class_name": "L1L2", "config": {"l2": 0.00019999999494757503, "l1": 0.0}}, "filters": 64, "bias_initializer": {"class_name": "Zeros", "config": {}}, "use_bias": true, "activity_regularizer": null, "kernel_size": [3, 3]}, "inbound_nodes": [[["batch_normalization_27", 0, 0, {}]]], "name": "conv2d_28"}, {"class_name": "BatchNormalization", "config": {"beta_constraint": null, "gamma_initializer": {"class_name": "Ones", "config": {}}, "moving_mean_initializer": {"class_name": "Zeros", "config": {}}, "name": "batch_normalization_17", "epsilon": 0.001, "trainable": true, "moving_variance_initializer": {"class_name": "Ones", "config": {}}, "beta_initializer": {"class_name": "Zeros", "config": {}}, "scale": true, "axis": -1, "gamma_constraint": null, "gamma_regularizer": null, "beta_regularizer": null, "momentum": 0.99, "center": true}, "inbound_nodes": [[["conv2d_17", 0, 0, {}]]], "name": "batch_normalization_17"}, {"class_name": "BatchNormalization", "config": {"beta_constraint": null, "gamma_initializer": {"class_name": "Ones", "config": {}}, "moving_mean_initializer": {"class_name": "Zeros", "config": {}}, "name": "batch_normalization_28", "epsilon": 0.001, "trainable": true, "moving_variance_initializer": {"class_name": "Ones", "config": {}}, "beta_initializer": {"class_name": "Zeros", "config": {}}, "scale": true, "axis": -1, "gamma_constraint": null, "gamma_regularizer": null, "beta_regularizer": null, "momentum": 0.99, "center": true}, "inbound_nodes": [[["conv2d_28", 0, 0, {}]]], "name": "batch_normalization_28"}, {"class_name": "Conv2D", "config": {"kernel_constraint": null, "kernel_initializer": {"class_name": "VarianceScaling", "config": {"distribution": "uniform", "scale": 1.0, "seed": null, "mode": "fan_avg"}}, "name": "conv2d_18", "bias_regularizer": null, "bias_constraint": null, "activation": "relu", "trainable": true, "data_format": "channels_last", "padding": "same", "strides": [1, 1], "dilation_rate": [1, 1], "kernel_regularizer": {"class_name": "L1L2", "config": {"l2": 0.00019999999494757503, "l1": 0.0}}, "filters": 64, "bias_initializer": {"class_name": "Zeros", "config": {}}, "use_bias": true, "activity_regularizer": null, "kernel_size": [3, 3]}, "inbound_nodes": [[["batch_normalization_17", 0, 0, {}]]], "name": "conv2d_18"}, {"class_name": "Conv2DTranspose", "config": {"output_padding": null, "kernel_initializer": {"class_name": "VarianceScaling", "config": {"distribution": "uniform", "scale": 1.0, "seed": null, "mode": "fan_avg"}}, "name": "conv2d_transpose_9", "bias_regularizer": null, "bias_constraint": null, "activation": "linear", "trainable": true, "data_format": "channels_last", "padding": "same", "strides": [2, 2], "dilation_rate": [1, 1], "kernel_regularizer": null, "filters": 32, "bias_initializer": {"class_name": "Zeros", "config": {}}, "kernel_constraint": null, "use_bias": true, "activity_regularizer": null, "kernel_size": [2, 2]}, "inbound_nodes": [[["batch_normalization_28", 0, 0, {}]]], "name": "conv2d_transpose_9"}, {"class_name": "BatchNormalization", "config": {"beta_constraint": null, "gamma_initializer": {"class_name": "Ones", "config": {}}, "moving_mean_initializer": {"class_name": "Zeros", "config": {}}, "name": "batch_normalization_18", "epsilon": 0.001, "trainable": true, "moving_variance_initializer": {"class_name": "Ones", "config": {}}, "beta_initializer": {"class_name": "Zeros", "config": {}}, "scale": true, "axis": -1, "gamma_constraint": null, "gamma_regularizer": null, "beta_regularizer": null, "momentum": 0.99, "center": true}, "inbound_nodes": [[["conv2d_18", 0, 0, {}]]], "name": "batch_normalization_18"}, {"class_name": "Concatenate", "config": {"trainable": true, "name": "xup9", "axis": 3}, "inbound_nodes": [[["conv2d_transpose_9", 0, 0, {}], ["batch_normalization_4", 0, 0, {}]]], "name": "xup9"}, {"class_name": "Conv2DTranspose", "config": {"output_padding": null, "kernel_initializer": {"class_name": "VarianceScaling", "config": {"distribution": "uniform", "scale": 1.0, "seed": null, "mode": "fan_avg"}}, "name": "conv2d_transpose_4", "bias_regularizer": null, "bias_constraint": null, "activation": "linear", "trainable": true, "data_format": "channels_last", "padding": "same", "strides": [2, 2], "dilation_rate": [1, 1], "kernel_regularizer": null, "filters": 32, "bias_initializer": {"class_name": "Zeros", "config": {}}, "kernel_constraint": null, "use_bias": true, "activity_regularizer": null, "kernel_size": [2, 2]}, "inbound_nodes": [[["batch_normalization_18", 0, 0, {}]]], "name": "conv2d_transpose_4"}, {"class_name": "Dropout", "config": {"rate": 0.3, "noise_shape": null, "trainable": true, "seed": null, "name": "dropout_12"}, "inbound_nodes": [[["xup9", 0, 0, {}]]], "name": "dropout_12"}, {"class_name": "Concatenate", "config": {"trainable": true, "name": "up9", "axis": 3}, "inbound_nodes": [[["conv2d_transpose_4", 0, 0, {}], ["batch_normalization_4", 0, 0, {}]]], "name": "up9"}, {"class_name": "Conv2D", "config": {"kernel_constraint": null, "kernel_initializer": {"class_name": "VarianceScaling", "config": {"distribution": "uniform", "scale": 1.0, "seed": null, "mode": "fan_avg"}}, "name": "conv2d_29", "bias_regularizer": null, "bias_constraint": null, "activation": "relu", "trainable": true, "data_format": "channels_last", "padding": "same", "strides": [1, 1], "dilation_rate": [1, 1], "kernel_regularizer": {"class_name": "L1L2", "config": {"l2": 0.00019999999494757503, "l1": 0.0}}, "filters": 32, "bias_initializer": {"class_name": "Zeros", "config": {}}, "use_bias": true, "activity_regularizer": null, "kernel_size": [3, 3]}, "inbound_nodes": [[["dropout_12", 0, 0, {}]]], "name": "conv2d_29"}, {"class_name": "Conv2D", "config": {"kernel_constraint": null, "kernel_initializer": {"class_name": "VarianceScaling", "config": {"distribution": "uniform", "scale": 1.0, "seed": null, "mode": "fan_avg"}}, "name": "conv2d_19", "bias_regularizer": null, "bias_constraint": null, "activation": "relu", "trainable": true, "data_format": "channels_last", "padding": "same", "strides": [1, 1], "dilation_rate": [1, 1], "kernel_regularizer": {"class_name": "L1L2", "config": {"l2": 0.00019999999494757503, "l1": 0.0}}, "filters": 32, "bias_initializer": {"class_name": "Zeros", "config": {}}, "use_bias": true, "activity_regularizer": null, "kernel_size": [3, 3]}, "inbound_nodes": [[["up9", 0, 0, {}]]], "name": "conv2d_19"}, {"class_name": "BatchNormalization", "config": {"beta_constraint": null, "gamma_initializer": {"class_name": "Ones", "config": {}}, "moving_mean_initializer": {"class_name": "Zeros", "config": {}}, "name": "batch_normalization_29", "epsilon": 0.001, "trainable": true, "moving_variance_initializer": {"class_name": "Ones", "config": {}}, "beta_initializer": {"class_name": "Zeros", "config": {}}, "scale": true, "axis": -1, "gamma_constraint": null, "gamma_regularizer": null, "beta_regularizer": null, "momentum": 0.99, "center": true}, "inbound_nodes": [[["conv2d_29", 0, 0, {}]]], "name": "batch_normalization_29"}, {"class_name": "BatchNormalization", "config": {"beta_constraint": null, "gamma_initializer": {"class_name": "Ones", "config": {}}, "moving_mean_initializer": {"class_name": "Zeros", "config": {}}, "name": "batch_normalization_19", "epsilon": 0.001, "trainable": true, "moving_variance_initializer": {"class_name": "Ones", "config": {}}, "beta_initializer": {"class_name": "Zeros", "config": {}}, "scale": true, "axis": -1, "gamma_constraint": null, "gamma_regularizer": null, "beta_regularizer": null, "momentum": 0.99, "center": true}, "inbound_nodes": [[["conv2d_19", 0, 0, {}]]], "name": "batch_normalization_19"}, {"class_name": "Conv2D", "config": {"kernel_constraint": null, "kernel_initializer": {"class_name": "VarianceScaling", "config": {"distribution": "uniform", "scale": 1.0, "seed": null, "mode": "fan_avg"}}, "name": "conv2d_30", "bias_regularizer": null, "bias_constraint": null, "activation": "relu", "trainable": true, "data_format": "channels_last", "padding": "same", "strides": [1, 1], "dilation_rate": [1, 1], "kernel_regularizer": {"class_name": "L1L2", "config": {"l2": 0.00019999999494757503, "l1": 0.0}}, "filters": 32, "bias_initializer": {"class_name": "Zeros", "config": {}}, "use_bias": true, "activity_regularizer": null, "kernel_size": [3, 3]}, "inbound_nodes": [[["batch_normalization_29", 0, 0, {}]]], "name": "conv2d_30"}, {"class_name": "Conv2D", "config": {"kernel_constraint": null, "kernel_initializer": {"class_name": "VarianceScaling", "config": {"distribution": "uniform", "scale": 1.0, "seed": null, "mode": "fan_avg"}}, "name": "conv2d_20", "bias_regularizer": null, "bias_constraint": null, "activation": "relu", "trainable": true, "data_format": "channels_last", "padding": "same", "strides": [1, 1], "dilation_rate": [1, 1], "kernel_regularizer": {"class_name": "L1L2", "config": {"l2": 0.00019999999494757503, "l1": 0.0}}, "filters": 12, "bias_initializer": {"class_name": "Zeros", "config": {}}, "use_bias": true, "activity_regularizer": null, "kernel_size": [3, 3]}, "inbound_nodes": [[["batch_normalization_19", 0, 0, {}]]], "name": "conv2d_20"}, {"class_name": "BatchNormalization", "config": {"beta_constraint": null, "gamma_initializer": {"class_name": "Ones", "config": {}}, "moving_mean_initializer": {"class_name": "Zeros", "config": {}}, "name": "batch_normalization_30", "epsilon": 0.001, "trainable": true, "moving_variance_initializer": {"class_name": "Ones", "config": {}}, "beta_initializer": {"class_name": "Zeros", "config": {}}, "scale": true, "axis": -1, "gamma_constraint": null, "gamma_regularizer": null, "beta_regularizer": null, "momentum": 0.99, "center": true}, "inbound_nodes": [[["conv2d_30", 0, 0, {}]]], "name": "batch_normalization_30"}, {"class_name": "BatchNormalization", "config": {"beta_constraint": null, "gamma_initializer": {"class_name": "Ones", "config": {}}, "moving_mean_initializer": {"class_name": "Zeros", "config": {}}, "name": "batch_normalization_20", "epsilon": 0.001, "trainable": true, "moving_variance_initializer": {"class_name": "Ones", "config": {}}, "beta_initializer": {"class_name": "Zeros", "config": {}}, "scale": true, "axis": -1, "gamma_constraint": null, "gamma_regularizer": null, "beta_regularizer": null, "momentum": 0.99, "center": true}, "inbound_nodes": [[["conv2d_20", 0, 0, {}]]], "name": "batch_normalization_20"}, {"class_name": "Conv2DTranspose", "config": {"output_padding": null, "kernel_initializer": {"class_name": "VarianceScaling", "config": {"distribution": "uniform", "scale": 1.0, "seed": null, "mode": "fan_avg"}}, "name": "conv2d_transpose_10", "bias_regularizer": null, "bias_constraint": null, "activation": "linear", "trainable": true, "data_format": "channels_last", "padding": "same", "strides": [2, 2], "dilation_rate": [1, 1], "kernel_regularizer": null, "filters": 32, "bias_initializer": {"class_name": "Zeros", "config": {}}, "kernel_constraint": null, "use_bias": true, "activity_regularizer": null, "kernel_size": [2, 2]}, "inbound_nodes": [[["batch_normalization_30", 0, 0, {}]]], "name": "conv2d_transpose_10"}, {"class_name": "Conv2DTranspose", "config": {"output_padding": null, "kernel_initializer": {"class_name": "VarianceScaling", "config": {"distribution": "uniform", "scale": 1.0, "seed": null, "mode": "fan_avg"}}, "name": "conv2d_transpose_5", "bias_regularizer": null, "bias_constraint": null, "activation": "linear", "trainable": true, "data_format": "channels_last", "padding": "same", "strides": [2, 2], "dilation_rate": [1, 1], "kernel_regularizer": null, "filters": 32, "bias_initializer": {"class_name": "Zeros", "config": {}}, "kernel_constraint": null, "use_bias": true, "activity_regularizer": null, "kernel_size": [2, 2]}, "inbound_nodes": [[["batch_normalization_20", 0, 0, {}]]], "name": "conv2d_transpose_5"}, {"class_name": "Concatenate", "config": {"trainable": true, "name": "xup10", "axis": 3}, "inbound_nodes": [[["conv2d_transpose_10", 0, 0, {}], ["batch_normalization_2", 0, 0, {}]]], "name": "xup10"}, {"class_name": "Concatenate", "config": {"trainable": true, "name": "up10", "axis": 3}, "inbound_nodes": [[["conv2d_transpose_5", 0, 0, {}], ["batch_normalization_2", 0, 0, {}]]], "name": "up10"}, {"class_name": "Dropout", "config": {"rate": 0.3, "noise_shape": null, "trainable": true, "seed": null, "name": "dropout_13"}, "inbound_nodes": [[["xup10", 0, 0, {}]]], "name": "dropout_13"}, {"class_name": "Conv2D", "config": {"kernel_constraint": null, "kernel_initializer": {"class_name": "VarianceScaling", "config": {"distribution": "uniform", "scale": 1.0, "seed": null, "mode": "fan_avg"}}, "name": "conv2d_21", "bias_regularizer": null, "bias_constraint": null, "activation": "relu", "trainable": true, "data_format": "channels_last", "padding": "same", "strides": [1, 1], "dilation_rate": [1, 1], "kernel_regularizer": {"class_name": "L1L2", "config": {"l2": 0.00019999999494757503, "l1": 0.0}}, "filters": 32, "bias_initializer": {"class_name": "Zeros", "config": {}}, "use_bias": true, "activity_regularizer": null, "kernel_size": [3, 3]}, "inbound_nodes": [[["up10", 0, 0, {}]]], "name": "conv2d_21"}, {"class_name": "Conv2D", "config": {"kernel_constraint": null, "kernel_initializer": {"class_name": "VarianceScaling", "config": {"distribution": "uniform", "scale": 1.0, "seed": null, "mode": "fan_avg"}}, "name": "conv2d_31", "bias_regularizer": null, "bias_constraint": null, "activation": "relu", "trainable": true, "data_format": "channels_last", "padding": "same", "strides": [1, 1], "dilation_rate": [1, 1], "kernel_regularizer": {"class_name": "L1L2", "config": {"l2": 0.00019999999494757503, "l1": 0.0}}, "filters": 32, "bias_initializer": {"class_name": "Zeros", "config": {}}, "use_bias": true, "activity_regularizer": null, "kernel_size": [3, 3]}, "inbound_nodes": [[["dropout_13", 0, 0, {}]]], "name": "conv2d_31"}, {"class_name": "BatchNormalization", "config": {"beta_constraint": null, "gamma_initializer": {"class_name": "Ones", "config": {}}, "moving_mean_initializer": {"class_name": "Zeros", "config": {}}, "name": "batch_normalization_21", "epsilon": 0.001, "trainable": true, "moving_variance_initializer": {"class_name": "Ones", "config": {}}, "beta_initializer": {"class_name": "Zeros", "config": {}}, "scale": true, "axis": -1, "gamma_constraint": null, "gamma_regularizer": null, "beta_regularizer": null, "momentum": 0.99, "center": true}, "inbound_nodes": [[["conv2d_21", 0, 0, {}]]], "name": "batch_normalization_21"}, {"class_name": "BatchNormalization", "config": {"beta_constraint": null, "gamma_initializer": {"class_name": "Ones", "config": {}}, "moving_mean_initializer": {"class_name": "Zeros", "config": {}}, "name": "batch_normalization_31", "epsilon": 0.001, "trainable": true, "moving_variance_initializer": {"class_name": "Ones", "config": {}}, "beta_initializer": {"class_name": "Zeros", "config": {}}, "scale": true, "axis": -1, "gamma_constraint": null, "gamma_regularizer": null, "beta_regularizer": null, "momentum": 0.99, "center": true}, "inbound_nodes": [[["conv2d_31", 0, 0, {}]]], "name": "batch_normalization_31"}, {"class_name": "Conv2D", "config": {"kernel_constraint": null, "kernel_initializer": {"class_name": "VarianceScaling", "config": {"distribution": "uniform", "scale": 1.0, "seed": null, "mode": "fan_avg"}}, "name": "conv2d_22", "bias_regularizer": null, "bias_constraint": null, "activation": "relu", "trainable": true, "data_format": "channels_last", "padding": "same", "strides": [1, 1], "dilation_rate": [1, 1], "kernel_regularizer": {"class_name": "L1L2", "config": {"l2": 0.00019999999494757503, "l1": 0.0}}, "filters": 32, "bias_initializer": {"class_name": "Zeros", "config": {}}, "use_bias": true, "activity_regularizer": null, "kernel_size": [3, 3]}, "inbound_nodes": [[["batch_normalization_21", 0, 0, {}]]], "name": "conv2d_22"}, {"class_name": "Conv2D", "config": {"kernel_constraint": null, "kernel_initializer": {"class_name": "VarianceScaling", "config": {"distribution": "uniform", "scale": 1.0, "seed": null, "mode": "fan_avg"}}, "name": "conv2d_32", "bias_regularizer": null, "bias_constraint": null, "activation": "relu", "trainable": true, "data_format": "channels_last", "padding": "same", "strides": [1, 1], "dilation_rate": [1, 1], "kernel_regularizer": {"class_name": "L1L2", "config": {"l2": 0.00019999999494757503, "l1": 0.0}}, "filters": 32, "bias_initializer": {"class_name": "Zeros", "config": {}}, "use_bias": true, "activity_regularizer": null, "kernel_size": [3, 3]}, "inbound_nodes": [[["batch_normalization_31", 0, 0, {}]]], "name": "conv2d_32"}, {"class_name": "BatchNormalization", "config": {"beta_constraint": null, "gamma_initializer": {"class_name": "Ones", "config": {}}, "moving_mean_initializer": {"class_name": "Zeros", "config": {}}, "name": "batch_normalization_22", "epsilon": 0.001, "trainable": true, "moving_variance_initializer": {"class_name": "Ones", "config": {}}, "beta_initializer": {"class_name": "Zeros", "config": {}}, "scale": true, "axis": -1, "gamma_constraint": null, "gamma_regularizer": null, "beta_regularizer": null, "momentum": 0.99, "center": true}, "inbound_nodes": [[["conv2d_22", 0, 0, {}]]], "name": "batch_normalization_22"}, {"class_name": "BatchNormalization", "config": {"beta_constraint": null, "gamma_initializer": {"class_name": "Ones", "config": {}}, "moving_mean_initializer": {"class_name": "Zeros", "config": {}}, "name": "batch_normalization_32", "epsilon": 0.001, "trainable": true, "moving_variance_initializer": {"class_name": "Ones", "config": {}}, "beta_initializer": {"class_name": "Zeros", "config": {}}, "scale": true, "axis": -1, "gamma_constraint": null, "gamma_regularizer": null, "beta_regularizer": null, "momentum": 0.99, "center": true}, "inbound_nodes": [[["conv2d_32", 0, 0, {}]]], "name": "batch_normalization_32"}, {"class_name": "Conv2D", "config": {"kernel_constraint": null, "kernel_initializer": {"class_name": "VarianceScaling", "config": {"distribution": "uniform", "scale": 1.0, "seed": null, "mode": "fan_avg"}}, "name": "final_op", "bias_regularizer": null, "bias_constraint": null, "activation": "sigmoid", "trainable": true, "data_format": "channels_last", "padding": "valid", "strides": [1, 1], "dilation_rate": [1, 1], "kernel_regularizer": null, "filters": 1, "bias_initializer": {"class_name": "Zeros", "config": {}}, "use_bias": true, "activity_regularizer": null, "kernel_size": [1, 1]}, "inbound_nodes": [[["batch_normalization_22", 0, 0, {}]]], "name": "final_op"}, {"class_name": "Conv2D", "config": {"kernel_constraint": null, "kernel_initializer": {"class_name": "VarianceScaling", "config": {"distribution": "uniform", "scale": 1.0, "seed": null, "mode": "fan_avg"}}, "name": "xfinal_op", "bias_regularizer": null, "bias_constraint": null, "activation": "sigmoid", "trainable": true, "data_format": "channels_last", "padding": "valid", "strides": [1, 1], "dilation_rate": [1, 1], "kernel_regularizer": null, "filters": 1, "bias_initializer": {"class_name": "Zeros", "config": {}}, "use_bias": true, "activity_regularizer": null, "kernel_size": [1, 1]}, "inbound_nodes": [[["batch_normalization_32", 0, 0, {}]]], "name": "xfinal_op"}, {"class_name": "Add", "config": {"trainable": true, "name": "add_1"}, "inbound_nodes": [[["final_op", 0, 0, {}], ["xfinal_op", 0, 0, {}]]], "name": "add_1"}, {"class_name": "Concatenate", "config": {"trainable": true, "name": "res_a", "axis": -1}, "inbound_nodes": [[["final_op", 0, 0, {}], ["xfinal_op", 0, 0, {}], ["add_1", 0, 0, {}]]], "name": "res_a"}, {"class_name": "Conv2D", "config": {"kernel_constraint": null, "kernel_initializer": {"class_name": "VarianceScaling", "config": {"distribution": "uniform", "scale": 1.0, "seed": null, "mode": "fan_avg"}}, "name": "conv2d_33", "bias_regularizer": null, "bias_constraint": null, "activation": "relu", "trainable": true, "data_format": "channels_last", "padding": "same", "strides": [1, 1], "dilation_rate": [1, 1], "kernel_regularizer": {"class_name": "L1L2", "config": {"l2": 0.00019999999494757503, "l1": 0.0}}, "filters": 32, "bias_initializer": {"class_name": "Zeros", "config": {}}, "use_bias": true, "activity_regularizer": null, "kernel_size": [3, 3]}, "inbound_nodes": [[["res_a", 0, 0, {}]]], "name": "conv2d_33"}, {"class_name": "BatchNormalization", "config": {"beta_constraint": null, "gamma_initializer": {"class_name": "Ones", "config": {}}, "moving_mean_initializer": {"class_name": "Zeros", "config": {}}, "name": "batch_normalization_33", "epsilon": 0.001, "trainable": true, "moving_variance_initializer": {"class_name": "Ones", "config": {}}, "beta_initializer": {"class_name": "Zeros", "config": {}}, "scale": true, "axis": -1, "gamma_constraint": null, "gamma_regularizer": null, "beta_regularizer": null, "momentum": 0.99, "center": true}, "inbound_nodes": [[["conv2d_33", 0, 0, {}]]], "name": "batch_normalization_33"}, {"class_name": "Conv2D", "config": {"kernel_constraint": null, "kernel_initializer": {"class_name": "VarianceScaling", "config": {"distribution": "uniform", "scale": 1.0, "seed": null, "mode": "fan_avg"}}, "name": "conv2d_34", "bias_regularizer": null, "bias_constraint": null, "activation": "relu", "trainable": true, "data_format": "channels_last", "padding": "same", "strides": [1, 1], "dilation_rate": [1, 1], "kernel_regularizer": {"class_name": "L1L2", "config": {"l2": 0.00019999999494757503, "l1": 0.0}}, "filters": 32, "bias_initializer": {"class_name": "Zeros", "config": {}}, "use_bias": true, "activity_regularizer": null, "kernel_size": [3, 3]}, "inbound_nodes": [[["batch_normalization_33", 0, 0, {}]]], "name": "conv2d_34"}, {"class_name": "BatchNormalization", "config": {"beta_constraint": null, "gamma_initializer": {"class_name": "Ones", "config": {}}, "moving_mean_initializer": {"class_name": "Zeros", "config": {}}, "name": "batch_normalization_34", "epsilon": 0.001, "trainable": true, "moving_variance_initializer": {"class_name": "Ones", "config": {}}, "beta_initializer": {"class_name": "Zeros", "config": {}}, "scale": true, "axis": -1, "gamma_constraint": null, "gamma_regularizer": null, "beta_regularizer": null, "momentum": 0.99, "center": true}, "inbound_nodes": [[["conv2d_34", 0, 0, {}]]], "name": "batch_normalization_34"}, {"class_name": "MaxPooling2D", "config": {"name": "max_pooling2d_6", "trainable": true, "data_format": "channels_last", "pool_size": [2, 2], "padding": "valid", "strides": [2, 2]}, "inbound_nodes": [[["batch_normalization_34", 0, 0, {}]]], "name": "max_pooling2d_6"}, {"class_name": "Dropout", "config": {"rate": 0.3, "noise_shape": null, "trainable": true, "seed": null, "name": "dropout_14"}, "inbound_nodes": [[["max_pooling2d_6", 0, 0, {}]]], "name": "dropout_14"}, {"class_name": "Conv2D", "config": {"kernel_constraint": null, "kernel_initializer": {"class_name": "VarianceScaling", "config": {"distribution": "uniform", "scale": 1.0, "seed": null, "mode": "fan_avg"}}, "name": "conv2d_35", "bias_regularizer": null, "bias_constraint": null, "activation": "relu", "trainable": true, "data_format": "channels_last", "padding": "same", "strides": [1, 1], "dilation_rate": [1, 1], "kernel_regularizer": {"class_name": "L1L2", "config": {"l2": 0.00019999999494757503, "l1": 0.0}}, "filters": 32, "bias_initializer": {"class_name": "Zeros", "config": {}}, "use_bias": true, "activity_regularizer": null, "kernel_size": [3, 3]}, "inbound_nodes": [[["dropout_14", 0, 0, {}]]], "name": "conv2d_35"}, {"class_name": "BatchNormalization", "config": {"beta_constraint": null, "gamma_initializer": {"class_name": "Ones", "config": {}}, "moving_mean_initializer": {"class_name": "Zeros", "config": {}}, "name": "batch_normalization_35", "epsilon": 0.001, "trainable": true, "moving_variance_initializer": {"class_name": "Ones", "config": {}}, "beta_initializer": {"class_name": "Zeros", "config": {}}, "scale": true, "axis": -1, "gamma_constraint": null, "gamma_regularizer": null, "beta_regularizer": null, "momentum": 0.99, "center": true}, "inbound_nodes": [[["conv2d_35", 0, 0, {}]]], "name": "batch_normalization_35"}, {"class_name": "Conv2D", "config": {"kernel_constraint": null, "kernel_initializer": {"class_name": "VarianceScaling", "config": {"distribution": "uniform", "scale": 1.0, "seed": null, "mode": "fan_avg"}}, "name": "conv2d_36", "bias_regularizer": null, "bias_constraint": null, "activation": "relu", "trainable": true, "data_format": "channels_last", "padding": "same", "strides": [1, 1], "dilation_rate": [1, 1], "kernel_regularizer": {"class_name": "L1L2", "config": {"l2": 0.00019999999494757503, "l1": 0.0}}, "filters": 32, "bias_initializer": {"class_name": "Zeros", "config": {}}, "use_bias": true, "activity_regularizer": null, "kernel_size": [3, 3]}, "inbound_nodes": [[["batch_normalization_35", 0, 0, {}]]], "name": "conv2d_36"}, {"class_name": "BatchNormalization", "config": {"beta_constraint": null, "gamma_initializer": {"class_name": "Ones", "config": {}}, "moving_mean_initializer": {"class_name": "Zeros", "config": {}}, "name": "batch_normalization_36", "epsilon": 0.001, "trainable": true, "moving_variance_initializer": {"class_name": "Ones", "config": {}}, "beta_initializer": {"class_name": "Zeros", "config": {}}, "scale": true, "axis": -1, "gamma_constraint": null, "gamma_regularizer": null, "beta_regularizer": null, "momentum": 0.99, "center": true}, "inbound_nodes": [[["conv2d_36", 0, 0, {}]]], "name": "batch_normalization_36"}, {"class_name": "MaxPooling2D", "config": {"name": "max_pooling2d_7", "trainable": true, "data_format": "channels_last", "pool_size": [2, 2], "padding": "valid", "strides": [2, 2]}, "inbound_nodes": [[["batch_normalization_36", 0, 0, {}]]], "name": "max_pooling2d_7"}, {"class_name": "Dropout", "config": {"rate": 0.3, "noise_shape": null, "trainable": true, "seed": null, "name": "dropout_15"}, "inbound_nodes": [[["max_pooling2d_7", 0, 0, {}]]], "name": "dropout_15"}, {"class_name": "Conv2D", "config": {"kernel_constraint": null, "kernel_initializer": {"class_name": "VarianceScaling", "config": {"distribution": "uniform", "scale": 1.0, "seed": null, "mode": "fan_avg"}}, "name": "conv2d_37", "bias_regularizer": null, "bias_constraint": null, "activation": "relu", "trainable": true, "data_format": "channels_last", "padding": "same", "strides": [1, 1], "dilation_rate": [1, 1], "kernel_regularizer": {"class_name": "L1L2", "config": {"l2": 0.00019999999494757503, "l1": 0.0}}, "filters": 64, "bias_initializer": {"class_name": "Zeros", "config": {}}, "use_bias": true, "activity_regularizer": null, "kernel_size": [3, 3]}, "inbound_nodes": [[["dropout_15", 0, 0, {}]]], "name": "conv2d_37"}, {"class_name": "BatchNormalization", "config": {"beta_constraint": null, "gamma_initializer": {"class_name": "Ones", "config": {}}, "moving_mean_initializer": {"class_name": "Zeros", "config": {}}, "name": "batch_normalization_37", "epsilon": 0.001, "trainable": true, "moving_variance_initializer": {"class_name": "Ones", "config": {}}, "beta_initializer": {"class_name": "Zeros", "config": {}}, "scale": true, "axis": -1, "gamma_constraint": null, "gamma_regularizer": null, "beta_regularizer": null, "momentum": 0.99, "center": true}, "inbound_nodes": [[["conv2d_37", 0, 0, {}]]], "name": "batch_normalization_37"}, {"class_name": "Conv2D", "config": {"kernel_constraint": null, "kernel_initializer": {"class_name": "VarianceScaling", "config": {"distribution": "uniform", "scale": 1.0, "seed": null, "mode": "fan_avg"}}, "name": "conv2d_38", "bias_regularizer": null, "bias_constraint": null, "activation": "relu", "trainable": true, "data_format": "channels_last", "padding": "same", "strides": [1, 1], "dilation_rate": [1, 1], "kernel_regularizer": {"class_name": "L1L2", "config": {"l2": 0.00019999999494757503, "l1": 0.0}}, "filters": 64, "bias_initializer": {"class_name": "Zeros", "config": {}}, "use_bias": true, "activity_regularizer": null, "kernel_size": [3, 3]}, "inbound_nodes": [[["batch_normalization_37", 0, 0, {}]]], "name": "conv2d_38"}, {"class_name": "BatchNormalization", "config": {"beta_constraint": null, "gamma_initializer": {"class_name": "Ones", "config": {}}, "moving_mean_initializer": {"class_name": "Zeros", "config": {}}, "name": "batch_normalization_38", "epsilon": 0.001, "trainable": true, "moving_variance_initializer": {"class_name": "Ones", "config": {}}, "beta_initializer": {"class_name": "Zeros", "config": {}}, "scale": true, "axis": -1, "gamma_constraint": null, "gamma_regularizer": null, "beta_regularizer": null, "momentum": 0.99, "center": true}, "inbound_nodes": [[["conv2d_38", 0, 0, {}]]], "name": "batch_normalization_38"}, {"class_name": "MaxPooling2D", "config": {"name": "max_pooling2d_8", "trainable": true, "data_format": "channels_last", "pool_size": [2, 2], "padding": "valid", "strides": [2, 2]}, "inbound_nodes": [[["batch_normalization_38", 0, 0, {}]]], "name": "max_pooling2d_8"}, {"class_name": "Dropout", "config": {"rate": 0.3, "noise_shape": null, "trainable": true, "seed": null, "name": "dropout_16"}, "inbound_nodes": [[["max_pooling2d_8", 0, 0, {}]]], "name": "dropout_16"}, {"class_name": "Conv2D", "config": {"kernel_constraint": null, "kernel_initializer": {"class_name": "VarianceScaling", "config": {"distribution": "uniform", "scale": 1.0, "seed": null, "mode": "fan_avg"}}, "name": "conv2d_39", "bias_regularizer": null, "bias_constraint": null, "activation": "relu", "trainable": true, "data_format": "channels_last", "padding": "same", "strides": [1, 1], "dilation_rate": [1, 1], "kernel_regularizer": {"class_name": "L1L2", "config": {"l2": 0.00019999999494757503, "l1": 0.0}}, "filters": 128, "bias_initializer": {"class_name": "Zeros", "config": {}}, "use_bias": true, "activity_regularizer": null, "kernel_size": [3, 3]}, "inbound_nodes": [[["dropout_16", 0, 0, {}]]], "name": "conv2d_39"}, {"class_name": "BatchNormalization", "config": {"beta_constraint": null, "gamma_initializer": {"class_name": "Ones", "config": {}}, "moving_mean_initializer": {"class_name": "Zeros", "config": {}}, "name": "batch_normalization_39", "epsilon": 0.001, "trainable": true, "moving_variance_initializer": {"class_name": "Ones", "config": {}}, "beta_initializer": {"class_name": "Zeros", "config": {}}, "scale": true, "axis": -1, "gamma_constraint": null, "gamma_regularizer": null, "beta_regularizer": null, "momentum": 0.99, "center": true}, "inbound_nodes": [[["conv2d_39", 0, 0, {}]]], "name": "batch_normalization_39"}, {"class_name": "Conv2D", "config": {"kernel_constraint": null, "kernel_initializer": {"class_name": "VarianceScaling", "config": {"distribution": "uniform", "scale": 1.0, "seed": null, "mode": "fan_avg"}}, "name": "conv2d_40", "bias_regularizer": null, "bias_constraint": null, "activation": "relu", "trainable": true, "data_format": "channels_last", "padding": "same", "strides": [1, 1], "dilation_rate": [1, 1], "kernel_regularizer": {"class_name": "L1L2", "config": {"l2": 0.00019999999494757503, "l1": 0.0}}, "filters": 128, "bias_initializer": {"class_name": "Zeros", "config": {}}, "use_bias": true, "activity_regularizer": null, "kernel_size": [3, 3]}, "inbound_nodes": [[["batch_normalization_39", 0, 0, {}]]], "name": "conv2d_40"}, {"class_name": "BatchNormalization", "config": {"beta_constraint": null, "gamma_initializer": {"class_name": "Ones", "config": {}}, "moving_mean_initializer": {"class_name": "Zeros", "config": {}}, "name": "batch_normalization_40", "epsilon": 0.001, "trainable": true, "moving_variance_initializer": {"class_name": "Ones", "config": {}}, "beta_initializer": {"class_name": "Zeros", "config": {}}, "scale": true, "axis": -1, "gamma_constraint": null, "gamma_regularizer": null, "beta_regularizer": null, "momentum": 0.99, "center": true}, "inbound_nodes": [[["conv2d_40", 0, 0, {}]]], "name": "batch_normalization_40"}, {"class_name": "MaxPooling2D", "config": {"name": "max_pooling2d_9", "trainable": true, "data_format": "channels_last", "pool_size": [2, 2], "padding": "valid", "strides": [2, 2]}, "inbound_nodes": [[["batch_normalization_40", 0, 0, {}]]], "name": "max_pooling2d_9"}, {"class_name": "Dropout", "config": {"rate": 0.3, "noise_shape": null, "trainable": true, "seed": null, "name": "dropout_17"}, "inbound_nodes": [[["max_pooling2d_9", 0, 0, {}]]], "name": "dropout_17"}, {"class_name": "Conv2D", "config": {"kernel_constraint": null, "kernel_initializer": {"class_name": "VarianceScaling", "config": {"distribution": "uniform", "scale": 1.0, "seed": null, "mode": "fan_avg"}}, "name": "conv2d_41", "bias_regularizer": null, "bias_constraint": null, "activation": "relu", "trainable": true, "data_format": "channels_last", "padding": "same", "strides": [1, 1], "dilation_rate": [1, 1], "kernel_regularizer": {"class_name": "L1L2", "config": {"l2": 0.00019999999494757503, "l1": 0.0}}, "filters": 256, "bias_initializer": {"class_name": "Zeros", "config": {}}, "use_bias": true, "activity_regularizer": null, "kernel_size": [3, 3]}, "inbound_nodes": [[["dropout_17", 0, 0, {}]]], "name": "conv2d_41"}, {"class_name": "BatchNormalization", "config": {"beta_constraint": null, "gamma_initializer": {"class_name": "Ones", "config": {}}, "moving_mean_initializer": {"class_name": "Zeros", "config": {}}, "name": "batch_normalization_41", "epsilon": 0.001, "trainable": true, "moving_variance_initializer": {"class_name": "Ones", "config": {}}, "beta_initializer": {"class_name": "Zeros", "config": {}}, "scale": true, "axis": -1, "gamma_constraint": null, "gamma_regularizer": null, "beta_regularizer": null, "momentum": 0.99, "center": true}, "inbound_nodes": [[["conv2d_41", 0, 0, {}]]], "name": "batch_normalization_41"}, {"class_name": "Conv2D", "config": {"kernel_constraint": null, "kernel_initializer": {"class_name": "VarianceScaling", "config": {"distribution": "uniform", "scale": 1.0, "seed": null, "mode": "fan_avg"}}, "name": "conv2d_42", "bias_regularizer": null, "bias_constraint": null, "activation": "relu", "trainable": true, "data_format": "channels_last", "padding": "same", "strides": [1, 1], "dilation_rate": [1, 1], "kernel_regularizer": {"class_name": "L1L2", "config": {"l2": 0.00019999999494757503, "l1": 0.0}}, "filters": 256, "bias_initializer": {"class_name": "Zeros", "config": {}}, "use_bias": true, "activity_regularizer": null, "kernel_size": [3, 3]}, "inbound_nodes": [[["batch_normalization_41", 0, 0, {}]]], "name": "conv2d_42"}, {"class_name": "BatchNormalization", "config": {"beta_constraint": null, "gamma_initializer": {"class_name": "Ones", "config": {}}, "moving_mean_initializer": {"class_name": "Zeros", "config": {}}, "name": "batch_normalization_42", "epsilon": 0.001, "trainable": true, "moving_variance_initializer": {"class_name": "Ones", "config": {}}, "beta_initializer": {"class_name": "Zeros", "config": {}}, "scale": true, "axis": -1, "gamma_constraint": null, "gamma_regularizer": null, "beta_regularizer": null, "momentum": 0.99, "center": true}, "inbound_nodes": [[["conv2d_42", 0, 0, {}]]], "name": "batch_normalization_42"}, {"class_name": "MaxPooling2D", "config": {"name": "max_pooling2d_10", "trainable": true, "data_format": "channels_last", "pool_size": [2, 2], "padding": "valid", "strides": [2, 2]}, "inbound_nodes": [[["batch_normalization_42", 0, 0, {}]]], "name": "max_pooling2d_10"}, {"class_name": "Dropout", "config": {"rate": 0.3, "noise_shape": null, "trainable": true, "seed": null, "name": "dropout_18"}, "inbound_nodes": [[["max_pooling2d_10", 0, 0, {}]]], "name": "dropout_18"}, {"class_name": "Conv2D", "config": {"kernel_constraint": null, "kernel_initializer": {"class_name": "VarianceScaling", "config": {"distribution": "uniform", "scale": 1.0, "seed": null, "mode": "fan_avg"}}, "name": "conv2d_43", "bias_regularizer": null, "bias_constraint": null, "activation": "relu", "trainable": true, "data_format": "channels_last", "padding": "same", "strides": [1, 1], "dilation_rate": [1, 1], "kernel_regularizer": {"class_name": "L1L2", "config": {"l2": 0.00019999999494757503, "l1": 0.0}}, "filters": 512, "bias_initializer": {"class_name": "Zeros", "config": {}}, "use_bias": true, "activity_regularizer": null, "kernel_size": [3, 3]}, "inbound_nodes": [[["dropout_18", 0, 0, {}]]], "name": "conv2d_43"}, {"class_name": "BatchNormalization", "config": {"beta_constraint": null, "gamma_initializer": {"class_name": "Ones", "config": {}}, "moving_mean_initializer": {"class_name": "Zeros", "config": {}}, "name": "batch_normalization_43", "epsilon": 0.001, "trainable": true, "moving_variance_initializer": {"class_name": "Ones", "config": {}}, "beta_initializer": {"class_name": "Zeros", "config": {}}, "scale": true, "axis": -1, "gamma_constraint": null, "gamma_regularizer": null, "beta_regularizer": null, "momentum": 0.99, "center": true}, "inbound_nodes": [[["conv2d_43", 0, 0, {}]]], "name": "batch_normalization_43"}, {"class_name": "Conv2D", "config": {"kernel_constraint": null, "kernel_initializer": {"class_name": "VarianceScaling", "config": {"distribution": "uniform", "scale": 1.0, "seed": null, "mode": "fan_avg"}}, "name": "conv2d_44", "bias_regularizer": null, "bias_constraint": null, "activation": "relu", "trainable": true, "data_format": "channels_last", "padding": "same", "strides": [1, 1], "dilation_rate": [1, 1], "kernel_regularizer": {"class_name": "L1L2", "config": {"l2": 0.00019999999494757503, "l1": 0.0}}, "filters": 512, "bias_initializer": {"class_name": "Zeros", "config": {}}, "use_bias": true, "activity_regularizer": null, "kernel_size": [3, 3]}, "inbound_nodes": [[["batch_normalization_43", 0, 0, {}]]], "name": "conv2d_44"}, {"class_name": "BatchNormalization", "config": {"beta_constraint": null, "gamma_initializer": {"class_name": "Ones", "config": {}}, "moving_mean_initializer": {"class_name": "Zeros", "config": {}}, "name": "batch_normalization_44", "epsilon": 0.001, "trainable": true, "moving_variance_initializer": {"class_name": "Ones", "config": {}}, "beta_initializer": {"class_name": "Zeros", "config": {}}, "scale": true, "axis": -1, "gamma_constraint": null, "gamma_regularizer": null, "beta_regularizer": null, "momentum": 0.99, "center": true}, "inbound_nodes": [[["conv2d_44", 0, 0, {}]]], "name": "batch_normalization_44"}, {"class_name": "Conv2DTranspose", "config": {"output_padding": null, "kernel_initializer": {"class_name": "VarianceScaling", "config": {"distribution": "uniform", "scale": 1.0, "seed": null, "mode": "fan_avg"}}, "name": "conv2d_transpose_11", "bias_regularizer": null, "bias_constraint": null, "activation": "linear", "trainable": true, "data_format": "channels_last", "padding": "same", "strides": [2, 2], "dilation_rate": [1, 1], "kernel_regularizer": null, "filters": 256, "bias_initializer": {"class_name": "Zeros", "config": {}}, "kernel_constraint": null, "use_bias": true, "activity_regularizer": null, "kernel_size": [2, 2]}, "inbound_nodes": [[["batch_normalization_44", 0, 0, {}]]], "name": "conv2d_transpose_11"}, {"class_name": "Concatenate", "config": {"trainable": true, "name": "res_1_up6", "axis": 3}, "inbound_nodes": [[["conv2d_transpose_11", 0, 0, {}], ["batch_normalization_42", 0, 0, {}]]], "name": "res_1_up6"}, {"class_name": "Dropout", "config": {"rate": 0.3, "noise_shape": null, "trainable": true, "seed": null, "name": "dropout_19"}, "inbound_nodes": [[["res_1_up6", 0, 0, {}]]], "name": "dropout_19"}, {"class_name": "Conv2D", "config": {"kernel_constraint": null, "kernel_initializer": {"class_name": "VarianceScaling", "config": {"distribution": "uniform", "scale": 1.0, "seed": null, "mode": "fan_avg"}}, "name": "conv2d_45", "bias_regularizer": null, "bias_constraint": null, "activation": "relu", "trainable": true, "data_format": "channels_last", "padding": "same", "strides": [1, 1], "dilation_rate": [1, 1], "kernel_regularizer": {"class_name": "L1L2", "config": {"l2": 0.00019999999494757503, "l1": 0.0}}, "filters": 256, "bias_initializer": {"class_name": "Zeros", "config": {}}, "use_bias": true, "activity_regularizer": null, "kernel_size": [3, 3]}, "inbound_nodes": [[["dropout_19", 0, 0, {}]]], "name": "conv2d_45"}, {"class_name": "BatchNormalization", "config": {"beta_constraint": null, "gamma_initializer": {"class_name": "Ones", "config": {}}, "moving_mean_initializer": {"class_name": "Zeros", "config": {}}, "name": "batch_normalization_45", "epsilon": 0.001, "trainable": true, "moving_variance_initializer": {"class_name": "Ones", "config": {}}, "beta_initializer": {"class_name": "Zeros", "config": {}}, "scale": true, "axis": -1, "gamma_constraint": null, "gamma_regularizer": null, "beta_regularizer": null, "momentum": 0.99, "center": true}, "inbound_nodes": [[["conv2d_45", 0, 0, {}]]], "name": "batch_normalization_45"}, {"class_name": "Conv2D", "config": {"kernel_constraint": null, "kernel_initializer": {"class_name": "VarianceScaling", "config": {"distribution": "uniform", "scale": 1.0, "seed": null, "mode": "fan_avg"}}, "name": "conv2d_46", "bias_regularizer": null, "bias_constraint": null, "activation": "relu", "trainable": true, "data_format": "channels_last", "padding": "same", "strides": [1, 1], "dilation_rate": [1, 1], "kernel_regularizer": {"class_name": "L1L2", "config": {"l2": 0.00019999999494757503, "l1": 0.0}}, "filters": 256, "bias_initializer": {"class_name": "Zeros", "config": {}}, "use_bias": true, "activity_regularizer": null, "kernel_size": [3, 3]}, "inbound_nodes": [[["batch_normalization_45", 0, 0, {}]]], "name": "conv2d_46"}, {"class_name": "BatchNormalization", "config": {"beta_constraint": null, "gamma_initializer": {"class_name": "Ones", "config": {}}, "moving_mean_initializer": {"class_name": "Zeros", "config": {}}, "name": "batch_normalization_46", "epsilon": 0.001, "trainable": true, "moving_variance_initializer": {"class_name": "Ones", "config": {}}, "beta_initializer": {"class_name": "Zeros", "config": {}}, "scale": true, "axis": -1, "gamma_constraint": null, "gamma_regularizer": null, "beta_regularizer": null, "momentum": 0.99, "center": true}, "inbound_nodes": [[["conv2d_46", 0, 0, {}]]], "name": "batch_normalization_46"}, {"class_name": "Conv2DTranspose", "config": {"output_padding": null, "kernel_initializer": {"class_name": "VarianceScaling", "config": {"distribution": "uniform", "scale": 1.0, "seed": null, "mode": "fan_avg"}}, "name": "conv2d_transpose_12", "bias_regularizer": null, "bias_constraint": null, "activation": "linear", "trainable": true, "data_format": "channels_last", "padding": "same", "strides": [2, 2], "dilation_rate": [1, 1], "kernel_regularizer": null, "filters": 128, "bias_initializer": {"class_name": "Zeros", "config": {}}, "kernel_constraint": null, "use_bias": true, "activity_regularizer": null, "kernel_size": [2, 2]}, "inbound_nodes": [[["batch_normalization_46", 0, 0, {}]]], "name": "conv2d_transpose_12"}, {"class_name": "Concatenate", "config": {"trainable": true, "name": "res_1_up7", "axis": 3}, "inbound_nodes": [[["conv2d_transpose_12", 0, 0, {}], ["batch_normalization_40", 0, 0, {}]]], "name": "res_1_up7"}, {"class_name": "Dropout", "config": {"rate": 0.3, "noise_shape": null, "trainable": true, "seed": null, "name": "dropout_20"}, "inbound_nodes": [[["res_1_up7", 0, 0, {}]]], "name": "dropout_20"}, {"class_name": "Conv2D", "config": {"kernel_constraint": null, "kernel_initializer": {"class_name": "VarianceScaling", "config": {"distribution": "uniform", "scale": 1.0, "seed": null, "mode": "fan_avg"}}, "name": "conv2d_47", "bias_regularizer": null, "bias_constraint": null, "activation": "relu", "trainable": true, "data_format": "channels_last", "padding": "same", "strides": [1, 1], "dilation_rate": [1, 1], "kernel_regularizer": {"class_name": "L1L2", "config": {"l2": 0.00019999999494757503, "l1": 0.0}}, "filters": 128, "bias_initializer": {"class_name": "Zeros", "config": {}}, "use_bias": true, "activity_regularizer": null, "kernel_size": [3, 3]}, "inbound_nodes": [[["dropout_20", 0, 0, {}]]], "name": "conv2d_47"}, {"class_name": "BatchNormalization", "config": {"beta_constraint": null, "gamma_initializer": {"class_name": "Ones", "config": {}}, "moving_mean_initializer": {"class_name": "Zeros", "config": {}}, "name": "batch_normalization_47", "epsilon": 0.001, "trainable": true, "moving_variance_initializer": {"class_name": "Ones", "config": {}}, "beta_initializer": {"class_name": "Zeros", "config": {}}, "scale": true, "axis": -1, "gamma_constraint": null, "gamma_regularizer": null, "beta_regularizer": null, "momentum": 0.99, "center": true}, "inbound_nodes": [[["conv2d_47", 0, 0, {}]]], "name": "batch_normalization_47"}, {"class_name": "Conv2D", "config": {"kernel_constraint": null, "kernel_initializer": {"class_name": "VarianceScaling", "config": {"distribution": "uniform", "scale": 1.0, "seed": null, "mode": "fan_avg"}}, "name": "conv2d_48", "bias_regularizer": null, "bias_constraint": null, "activation": "relu", "trainable": true, "data_format": "channels_last", "padding": "same", "strides": [1, 1], "dilation_rate": [1, 1], "kernel_regularizer": {"class_name": "L1L2", "config": {"l2": 0.00019999999494757503, "l1": 0.0}}, "filters": 128, "bias_initializer": {"class_name": "Zeros", "config": {}}, "use_bias": true, "activity_regularizer": null, "kernel_size": [3, 3]}, "inbound_nodes": [[["batch_normalization_47", 0, 0, {}]]], "name": "conv2d_48"}, {"class_name": "BatchNormalization", "config": {"beta_constraint": null, "gamma_initializer": {"class_name": "Ones", "config": {}}, "moving_mean_initializer": {"class_name": "Zeros", "config": {}}, "name": "batch_normalization_48", "epsilon": 0.001, "trainable": true, "moving_variance_initializer": {"class_name": "Ones", "config": {}}, "beta_initializer": {"class_name": "Zeros", "config": {}}, "scale": true, "axis": -1, "gamma_constraint": null, "gamma_regularizer": null, "beta_regularizer": null, "momentum": 0.99, "center": true}, "inbound_nodes": [[["conv2d_48", 0, 0, {}]]], "name": "batch_normalization_48"}, {"class_name": "Conv2DTranspose", "config": {"output_padding": null, "kernel_initializer": {"class_name": "VarianceScaling", "config": {"distribution": "uniform", "scale": 1.0, "seed": null, "mode": "fan_avg"}}, "name": "conv2d_transpose_13", "bias_regularizer": null, "bias_constraint": null, "activation": "linear", "trainable": true, "data_format": "channels_last", "padding": "same", "strides": [2, 2], "dilation_rate": [1, 1], "kernel_regularizer": null, "filters": 64, "bias_initializer": {"class_name": "Zeros", "config": {}}, "kernel_constraint": null, "use_bias": true, "activity_regularizer": null, "kernel_size": [2, 2]}, "inbound_nodes": [[["batch_normalization_48", 0, 0, {}]]], "name": "conv2d_transpose_13"}, {"class_name": "Concatenate", "config": {"trainable": true, "name": "res_1_up8", "axis": 3}, "inbound_nodes": [[["conv2d_transpose_13", 0, 0, {}], ["batch_normalization_38", 0, 0, {}]]], "name": "res_1_up8"}, {"class_name": "Dropout", "config": {"rate": 0.3, "noise_shape": null, "trainable": true, "seed": null, "name": "dropout_21"}, "inbound_nodes": [[["res_1_up8", 0, 0, {}]]], "name": "dropout_21"}, {"class_name": "Conv2D", "config": {"kernel_constraint": null, "kernel_initializer": {"class_name": "VarianceScaling", "config": {"distribution": "uniform", "scale": 1.0, "seed": null, "mode": "fan_avg"}}, "name": "conv2d_49", "bias_regularizer": null, "bias_constraint": null, "activation": "relu", "trainable": true, "data_format": "channels_last", "padding": "same", "strides": [1, 1], "dilation_rate": [1, 1], "kernel_regularizer": {"class_name": "L1L2", "config": {"l2": 0.00019999999494757503, "l1": 0.0}}, "filters": 64, "bias_initializer": {"class_name": "Zeros", "config": {}}, "use_bias": true, "activity_regularizer": null, "kernel_size": [3, 3]}, "inbound_nodes": [[["dropout_21", 0, 0, {}]]], "name": "conv2d_49"}, {"class_name": "BatchNormalization", "config": {"beta_constraint": null, "gamma_initializer": {"class_name": "Ones", "config": {}}, "moving_mean_initializer": {"class_name": "Zeros", "config": {}}, "name": "batch_normalization_49", "epsilon": 0.001, "trainable": true, "moving_variance_initializer": {"class_name": "Ones", "config": {}}, "beta_initializer": {"class_name": "Zeros", "config": {}}, "scale": true, "axis": -1, "gamma_constraint": null, "gamma_regularizer": null, "beta_regularizer": null, "momentum": 0.99, "center": true}, "inbound_nodes": [[["conv2d_49", 0, 0, {}]]], "name": "batch_normalization_49"}, {"class_name": "Conv2D", "config": {"kernel_constraint": null, "kernel_initializer": {"class_name": "VarianceScaling", "config": {"distribution": "uniform", "scale": 1.0, "seed": null, "mode": "fan_avg"}}, "name": "conv2d_50", "bias_regularizer": null, "bias_constraint": null, "activation": "relu", "trainable": true, "data_format": "channels_last", "padding": "same", "strides": [1, 1], "dilation_rate": [1, 1], "kernel_regularizer": {"class_name": "L1L2", "config": {"l2": 0.00019999999494757503, "l1": 0.0}}, "filters": 64, "bias_initializer": {"class_name": "Zeros", "config": {}}, "use_bias": true, "activity_regularizer": null, "kernel_size": [3, 3]}, "inbound_nodes": [[["batch_normalization_49", 0, 0, {}]]], "name": "conv2d_50"}, {"class_name": "BatchNormalization", "config": {"beta_constraint": null, "gamma_initializer": {"class_name": "Ones", "config": {}}, "moving_mean_initializer": {"class_name": "Zeros", "config": {}}, "name": "batch_normalization_50", "epsilon": 0.001, "trainable": true, "moving_variance_initializer": {"class_name": "Ones", "config": {}}, "beta_initializer": {"class_name": "Zeros", "config": {}}, "scale": true, "axis": -1, "gamma_constraint": null, "gamma_regularizer": null, "beta_regularizer": null, "momentum": 0.99, "center": true}, "inbound_nodes": [[["conv2d_50", 0, 0, {}]]], "name": "batch_normalization_50"}, {"class_name": "Conv2DTranspose", "config": {"output_padding": null, "kernel_initializer": {"class_name": "VarianceScaling", "config": {"distribution": "uniform", "scale": 1.0, "seed": null, "mode": "fan_avg"}}, "name": "conv2d_transpose_14", "bias_regularizer": null, "bias_constraint": null, "activation": "linear", "trainable": true, "data_format": "channels_last", "padding": "same", "strides": [2, 2], "dilation_rate": [1, 1], "kernel_regularizer": null, "filters": 32, "bias_initializer": {"class_name": "Zeros", "config": {}}, "kernel_constraint": null, "use_bias": true, "activity_regularizer": null, "kernel_size": [2, 2]}, "inbound_nodes": [[["batch_normalization_50", 0, 0, {}]]], "name": "conv2d_transpose_14"}, {"class_name": "Concatenate", "config": {"trainable": true, "name": "res_1_up9", "axis": 3}, "inbound_nodes": [[["conv2d_transpose_14", 0, 0, {}], ["batch_normalization_36", 0, 0, {}]]], "name": "res_1_up9"}, {"class_name": "Dropout", "config": {"rate": 0.3, "noise_shape": null, "trainable": true, "seed": null, "name": "dropout_22"}, "inbound_nodes": [[["res_1_up9", 0, 0, {}]]], "name": "dropout_22"}, {"class_name": "Conv2D", "config": {"kernel_constraint": null, "kernel_initializer": {"class_name": "VarianceScaling", "config": {"distribution": "uniform", "scale": 1.0, "seed": null, "mode": "fan_avg"}}, "name": "conv2d_51", "bias_regularizer": null, "bias_constraint": null, "activation": "relu", "trainable": true, "data_format": "channels_last", "padding": "same", "strides": [1, 1], "dilation_rate": [1, 1], "kernel_regularizer": {"class_name": "L1L2", "config": {"l2": 0.00019999999494757503, "l1": 0.0}}, "filters": 32, "bias_initializer": {"class_name": "Zeros", "config": {}}, "use_bias": true, "activity_regularizer": null, "kernel_size": [3, 3]}, "inbound_nodes": [[["dropout_22", 0, 0, {}]]], "name": "conv2d_51"}, {"class_name": "BatchNormalization", "config": {"beta_constraint": null, "gamma_initializer": {"class_name": "Ones", "config": {}}, "moving_mean_initializer": {"class_name": "Zeros", "config": {}}, "name": "batch_normalization_51", "epsilon": 0.001, "trainable": true, "moving_variance_initializer": {"class_name": "Ones", "config": {}}, "beta_initializer": {"class_name": "Zeros", "config": {}}, "scale": true, "axis": -1, "gamma_constraint": null, "gamma_regularizer": null, "beta_regularizer": null, "momentum": 0.99, "center": true}, "inbound_nodes": [[["conv2d_51", 0, 0, {}]]], "name": "batch_normalization_51"}, {"class_name": "Conv2D", "config": {"kernel_constraint": null, "kernel_initializer": {"class_name": "VarianceScaling", "config": {"distribution": "uniform", "scale": 1.0, "seed": null, "mode": "fan_avg"}}, "name": "conv2d_52", "bias_regularizer": null, "bias_constraint": null, "activation": "relu", "trainable": true, "data_format": "channels_last", "padding": "same", "strides": [1, 1], "dilation_rate": [1, 1], "kernel_regularizer": {"class_name": "L1L2", "config": {"l2": 0.00019999999494757503, "l1": 0.0}}, "filters": 32, "bias_initializer": {"class_name": "Zeros", "config": {}}, "use_bias": true, "activity_regularizer": null, "kernel_size": [3, 3]}, "inbound_nodes": [[["batch_normalization_51", 0, 0, {}]]], "name": "conv2d_52"}, {"class_name": "BatchNormalization", "config": {"beta_constraint": null, "gamma_initializer": {"class_name": "Ones", "config": {}}, "moving_mean_initializer": {"class_name": "Zeros", "config": {}}, "name": "batch_normalization_52", "epsilon": 0.001, "trainable": true, "moving_variance_initializer": {"class_name": "Ones", "config": {}}, "beta_initializer": {"class_name": "Zeros", "config": {}}, "scale": true, "axis": -1, "gamma_constraint": null, "gamma_regularizer": null, "beta_regularizer": null, "momentum": 0.99, "center": true}, "inbound_nodes": [[["conv2d_52", 0, 0, {}]]], "name": "batch_normalization_52"}, {"class_name": "Conv2DTranspose", "config": {"output_padding": null, "kernel_initializer": {"class_name": "VarianceScaling", "config": {"distribution": "uniform", "scale": 1.0, "seed": null, "mode": "fan_avg"}}, "name": "conv2d_transpose_15", "bias_regularizer": null, "bias_constraint": null, "activation": "linear", "trainable": true, "data_format": "channels_last", "padding": "same", "strides": [2, 2], "dilation_rate": [1, 1], "kernel_regularizer": null, "filters": 32, "bias_initializer": {"class_name": "Zeros", "config": {}}, "kernel_constraint": null, "use_bias": true, "activity_regularizer": null, "kernel_size": [2, 2]}, "inbound_nodes": [[["batch_normalization_52", 0, 0, {}]]], "name": "conv2d_transpose_15"}, {"class_name": "Concatenate", "config": {"trainable": true, "name": "res_1_up10", "axis": 3}, "inbound_nodes": [[["conv2d_transpose_15", 0, 0, {}], ["batch_normalization_34", 0, 0, {}]]], "name": "res_1_up10"}, {"class_name": "Dropout", "config": {"rate": 0.3, "noise_shape": null, "trainable": true, "seed": null, "name": "dropout_23"}, "inbound_nodes": [[["res_1_up10", 0, 0, {}]]], "name": "dropout_23"}, {"class_name": "Conv2D", "config": {"kernel_constraint": null, "kernel_initializer": {"class_name": "VarianceScaling", "config": {"distribution": "uniform", "scale": 1.0, "seed": null, "mode": "fan_avg"}}, "name": "conv2d_53", "bias_regularizer": null, "bias_constraint": null, "activation": "relu", "trainable": true, "data_format": "channels_last", "padding": "same", "strides": [1, 1], "dilation_rate": [1, 1], "kernel_regularizer": {"class_name": "L1L2", "config": {"l2": 0.00019999999494757503, "l1": 0.0}}, "filters": 32, "bias_initializer": {"class_name": "Zeros", "config": {}}, "use_bias": true, "activity_regularizer": null, "kernel_size": [3, 3]}, "inbound_nodes": [[["dropout_23", 0, 0, {}]]], "name": "conv2d_53"}, {"class_name": "BatchNormalization", "config": {"beta_constraint": null, "gamma_initializer": {"class_name": "Ones", "config": {}}, "moving_mean_initializer": {"class_name": "Zeros", "config": {}}, "name": "batch_normalization_53", "epsilon": 0.001, "trainable": true, "moving_variance_initializer": {"class_name": "Ones", "config": {}}, "beta_initializer": {"class_name": "Zeros", "config": {}}, "scale": true, "axis": -1, "gamma_constraint": null, "gamma_regularizer": null, "beta_regularizer": null, "momentum": 0.99, "center": true}, "inbound_nodes": [[["conv2d_53", 0, 0, {}]]], "name": "batch_normalization_53"}, {"class_name": "Conv2D", "config": {"kernel_constraint": null, "kernel_initializer": {"class_name": "VarianceScaling", "config": {"distribution": "uniform", "scale": 1.0, "seed": null, "mode": "fan_avg"}}, "name": "conv2d_54", "bias_regularizer": null, "bias_constraint": null, "activation": "relu", "trainable": true, "data_format": "channels_last", "padding": "same", "strides": [1, 1], "dilation_rate": [1, 1], "kernel_regularizer": {"class_name": "L1L2", "config": {"l2": 0.00019999999494757503, "l1": 0.0}}, "filters": 32, "bias_initializer": {"class_name": "Zeros", "config": {}}, "use_bias": true, "activity_regularizer": null, "kernel_size": [3, 3]}, "inbound_nodes": [[["batch_normalization_53", 0, 0, {}]]], "name": "conv2d_54"}, {"class_name": "BatchNormalization", "config": {"beta_constraint": null, "gamma_initializer": {"class_name": "Ones", "config": {}}, "moving_mean_initializer": {"class_name": "Zeros", "config": {}}, "name": "batch_normalization_54", "epsilon": 0.001, "trainable": true, "moving_variance_initializer": {"class_name": "Ones", "config": {}}, "beta_initializer": {"class_name": "Zeros", "config": {}}, "scale": true, "axis": -1, "gamma_constraint": null, "gamma_regularizer": null, "beta_regularizer": null, "momentum": 0.99, "center": true}, "inbound_nodes": [[["conv2d_54", 0, 0, {}]]], "name": "batch_normalization_54"}, {"class_name": "Conv2D", "config": {"kernel_constraint": null, "kernel_initializer": {"class_name": "VarianceScaling", "config": {"distribution": "uniform", "scale": 1.0, "seed": null, "mode": "fan_avg"}}, "name": "res_1_final_op", "bias_regularizer": null, "bias_constraint": null, "activation": "sigmoid", "trainable": true, "data_format": "channels_last", "padding": "valid", "strides": [1, 1], "dilation_rate": [1, 1], "kernel_regularizer": null, "filters": 1, "bias_initializer": {"class_name": "Zeros", "config": {}}, "use_bias": true, "activity_regularizer": null, "kernel_size": [1, 1]}, "inbound_nodes": [[["batch_normalization_54", 0, 0, {}]]], "name": "res_1_final_op"}], "input_layers": [["ip0", 0, 0]], "output_layers": [["final_op", 0, 0], ["xfinal_op", 0, 0], ["res_1_final_op", 0, 0]], "name": "model_1"}, "backend": "tensorflow"}